models/checkpoints/current_model.pth (torch, 179671 bytes, 36 tensors)

lstm.weight_ih_l0 f4 [128, 3]
1.2497803 1.4260423 1.1128771 0.21480265 0.6635698 0.49833113 0.5334492 0.28959492
0.52406436 0.6108132 0.28895918 0.28160435 0.61799634 0.52999157 0.20375723 1.0644602
0.20099446 0.17273675 -0.04034282 0.46248814 0.40666574 0.38851365 0.2169253 -0.41640827
0.475848 0.71919876 0.9451447 0.222121 0.2292971 0.54301566 0.77862686 0.43358317
0.1787328 0.62472975 0.57538605 0.8028651 0.36861917 0.004587247 0.865681 0.20205435
0.54439574 -0.0055622226 0.3725515 0.604086 0.6785123 0.29462478 0.97738755 0.60865176
0.4983157 0.1774133 0.6927714 0.9185485 0.4731874 0.8107183 0.81145066 0.55751663
0.46737856 0.6908441 0.33991292 0.28796193 0.52780247 0.46569654 0.72734225 0.47180274
0.3763972 0.5140441 0.43035322 0.7066391 -0.14153104 0.25212404 0.54401404 0.6398537
0.77624065 0.34601375 0.5664252 0.19554482 -0.22033156 -0.39693978 0.042547066 0.3196833
0.4264406 0.18880835 0.31780294 0.22621599 0.65781176 0.3605408 0.083816096 0.27469924
0.023543462 0.076245174 0.34643227 0.2906132 0.80586314 -0.04878536 -0.11211748 0.7084219
0.25359812 0.36991036 0.30137148 0.26454082 0.44871533 0.33254617 0.1183432 -0.060870264
0.13720228 0.57357067 0.16257681 0.2305929 -0.17657849 -0.18874945 -0.2479156 0.25670815
-0.14756973 0.2942612 -0.4455028 0.03071233 0.14091979 0.50157225 0.068069756 -0.5490921
-0.34824237 0.23909827 0.28504476 -0.110113755 -0.15748446 0.061329458 0.26450586 -0.086756125
-0.3069991 0.031177102 -0.25557768 0.5893859 -0.094957046 -0.059176903 0.65808874 -0.26704848
0.008750771 0.070587695 -0.28655759 -0.16754605 0.14507858 0.037544183 0.20921175 -0.11639538
0.09021648 0.12800723 0.49008662 -0.15137191 -0.021957777 -0.12581284 0.12433159 0.26955247
-0.111040376 0.2274137 0.35031262 0.22132255 -0.31068262 -0.29424724 -0.13524885 -0.2806572
-0.01285161 0.27356365 0.13048074 0.16628644 0.037587374 0.19935812 0.52970326 0.5001075
-0.062574774 0.10351731 0.12083146 0.50234264 0.13734297 -0.8299509 0.11895126 0.22851141
0.51600766 0.23602007 0.13810927 -0.11719577 0.19455823 0.20122318 0.24062037 -0.07567644
0.041264117 -0.048229598 0.31208995 -0.158565 0.6264784 -0.545878 -0.67926854 0.24099156
-0.33499295 -1.3452863 0.12572923 -0.61140764 -0.55578023 -0.107413985 -0.5180222 -0.1793622
-0.5623601 0.29917723 -0.38493672 -0.2083628 0.15891872 0.45496285 -0.89314175 0.36915737
-0.077998616 0.5817233 -0.7192215 0.029653553 0.39855155 0.47223842 0.029567037 -0.51979053
-0.6148654 -0.5792472 0.1257958 0.5479479 0.419088 0.34508604 -0.29159242 -0.119559795
0.9860087 -0.3129162 0.0019244934 0.07296139 0.035466827 -0.020025454 -0.21970505 0.042420838
-0.10501646 -0.17374496 0.21536948 0.82189703 0.48059788 0.49514818 0.66427016 -0.033202305
-0.33876407 0.27158108 0.441902 -0.07146042 0.20192033 -1.0925027 -0.51458377 0.25368038
0.78279936 0.48811924 0.14343217 -0.20584962 0.4789 0.35138175 -0.9993073 -0.27306274
00000000: cdf8 9f3f 8e88 b63f c272 8e3f 3af5 5b3e
00000010: b6df 293f 4225 ff3e 2090 083f c945 943e
00000020: 1529 063f 415e 1c3f 75f2 933e 722e 903e
00000030: 0235 1e3f 87ad 073f bca5 503e 3b40 883f
00000040: 7ed1 4d3e e7e1 303e 833e 25bd 3fcb ec3e
00000050: 7e36 d03e 43eb c63e aa21 5e3e 7733 d5be
00000060: 59a2 f33e 691d 383f 01f5 713f b073 633e
00000070: dccc 6a3e 1303 0b3f 1754 473f 9dfe dd3e
00000080: bb05 373e 4aee 1f3f 804c 133f 9188 4d3f
00000090: a7bb bc3e 9e50 963b 459d 5d3f 56e7 4e3e
000000a0: 855d 0b3f 4e43 b6bb 12bf be3e 61a5 1a3f
000000b0: fbb2 2d3f 0fd9 963e 1236 7a3f 9ad0 1b3f
000000c0: 3c23 ff3e d5ab 353e 7759 313f ff25 6b3f
000000d0: 9e45 f23e 3c8b 4f3f 3bbb 4f3f 69b9 0e3f
000000e0: 3e4c ef3e 29db 303f 1109 ae3e bf6f 933e
000000f0: 101e 073f c76f ee3e 1a33 3a3f 2190 f13e
00000100: 22b7 c03e 6598 033f 4257 dc3e 4de6 343f
00000110: 83ed 10be 6716 813e 8144 0b3f 74cd 233f
00000120: b5b7 463f b728 b13e 3e01 113f e73c 483e
00000130: 999e 61be b13b cbbe d545 2e3d 88ad a33e
00000140: 6c56 da3e fa56 413e 11b7 a23e 2aa5 673e
00000150: 5a66 283f ce98 b83e c6a7 ab3d 61a5 8c3e
00000160: 38de c03c 6e26 9c3d 925f b13e 41cb 943e
00000170: 0c4d 4e3f 28d3 47bd d99d e5bd 235b 353f
00000180: 9dd7 813e e464 bd3e 5d4d 9a3e e571 873e
00000190: 04be e53e 7e43 aa3e eb5d f23d 1953 79bd
000001a0: c17e 0c3e 87d5 123f 897a 263e 8c20 6c3e
000001b0: fed0 34be 8947 41be 96dd 7dbe 406f 833e
000001c0: 851c 17be 67a9 963e f118 e4be 6d98 fb3c
000001d0: 474d 103e 0a67 003f 2868 8b3d 4d91 0cbf
000001e0: d34c b2be 2dd6 743e 63f1 913e 5283 e1bd
000001f0: 9b43 21be 9934 7b3d 506d 873e 32ad b1bd
00000200: fc2e 9dbe 1f67 ff3c 14db 82be ffe1 163f
00000210: d778 c2bd 7b63 72bd 8178 283f 94ba 88be
00000220: 655f 0f3c 4890 903d adb7 92be 3191 2bbe
00000230: 7b8f 143e eec7 193d 9b3b 563e b360 eebd
00000240: 6bc3 b83d 5414 033e a2ec fa3e 3d01 1bbe
00000250: cce0 b3bc 15d5 00be 90a1 fe3d c802 8a3e
00000260: 2369 e3bd 23df 683e 2d5c b33e 61a2 623e
00000270: cb11 9fbe 93a7 96be ad7e 0abe 4db2 8fbe
00000280: 8f8f 52bc 8910 8c3e be9c 053e fe46 2a3e
00000290: 38f5 193d 8924 4c3e a29a 073f 0c07 003f
000002a0: 3427 80bd e200 d43d 7c76 f73d 8799 003f
000002b0: a3a3 0c3e aa77 54bf b89c f33d e5fe 693e
000002c0: 1419 043f 3faf 713e 846c 0d3e 5604 f0bd
000002d0: 463a 473e 730d 4e3e 3065 763e 40fc 9abd
000002e0: 9004 293d 668c 45bd 41ca 9f3e dd5e 22be
000002f0: e360 203f a9be 0bbf 8be4 2dbf 7ec6 763e
00000300: 3284 abbe 5732 acbf 2abf 003e 3685 1cbf
00000310: 9d47 0ebf ddfb dbbd 1a9d 04bf b9aa 37be
00000320: d5f6 0fbf c22d 993e 6d16 c5be 0f5d 55be
00000330: 97bb 223e e4f0 e83e f0a4 64bf 3202 bd3e
00000340: bdbd 9fbd d1eb 143f e61e 38bf 02ec f23c
00000350: f30e cc3e 3cc9 f13e 9236 f23c fe10 05bf
00000360: d267 1dbf 8b49 14bf 9dd0 003e 5046 0c3f
00000370: b492 d63e 1eaf b03e 9a4b 95be c4db f4bd
00000380: 116b 7c3f 8d36 a0be 483f fc3a c86c 953d
00000390: aa45 113d 6c0c a4bc 5cfa 60be 79c1 2d3d
000003a0: df12 d7bd 33ea 31be d189 5c3e d867 523f
000003b0: ed10 f63e 1084 fd3e 9c0d 2a3f 24ff 07bd
000003c0: 7c72 adbe ad0c 8b3e fb40 e23e d759 92bd
000003d0: 34c4 4e3e 21d7 8bbf c3bb 03bf 65e2 813e
000003e0: 8a65 483f c4ea f93e e2df 123e 3eca 52be
000003f0: 6132 f53e 4fe8 b33e 9ad2 7fbf e1ce 8bbe

lstm.weight_hh_l0 f4 [128, 32]
-0.0497044 -0.29061976 -0.45922512 0.82575077 0.23740013 -0.27795938 0.92385256 -0.28232086
0.2419158 0.12547916 0.63395506 -0.12560108 -0.48301974 0.9960927 0.3642966 0.6057987
1.1564133 -0.5581301 -0.34186408 0.173873 -0.54289514 0.14808126 -0.20821817 0.38098103
-0.7359598 1.0677708 0.06250838 -0.02316655 -0.47733054 0.77368325 0.07022879 1.5362278
0.0024617512 -0.32439762 0.12355956 -0.39353856 0.23767175 0.26908258 0.7967401 -0.0044018603
-0.4872193 0.14638866 0.18950652 -0.19460247 -0.14562124 0.12614234 0.41136435 -0.16652934
0.5005423 -0.4675813 0.016825527 0.26125845 -0.09406258 -0.025123062 -0.0933483 0.61519647
0.010383674 0.20469892 0.5653184 0.2511556 0.36905432 0.19753665 -0.04199434 0.693119
-0.8681482 -0.27753493 -0.5056569 0.17632377 0.4729709 -0.19619325 -0.31965178 0.39971396
-0.0529346 -0.44848186 0.019122599 -0.15151817 -0.75971746 0.40507203 -0.01892034 0.442811
0.57498544 -0.57564324 -0.3529113 -0.03683603 0.18464984 0.005752691 0.24076633 -0.051229052
-0.60481787 0.26885745 0.2761498 -0.6799721 -0.12608387 0.04868948 0.41869172 0.45367953
-0.43371955 -0.28574654 0.20655017 0.38983077 0.2771986 0.0267346 -0.5279952 0.644414
-0.77069736 0.7558424 0.4447839 -0.32371202 -0.13281178 0.21430098 0.5174583 0.4358382
-0.18289635 0.3330295 -0.3207782 0.12735263 0.30113798 0.53994673 -0.05074369 0.13562612
-0.107429095 0.62189126 0.013829576 -0.5721185 0.09905759 0.33229646 -0.5601657 0.15231976
-0.23535365 -0.7256428 -0.6016526 -0.29681513 -0.18046963 0.06698753 0.88291246 0.17557636
-0.6089536 -0.255262 0.18922 0.08031167 -0.40098175 0.42473575 0.3372532 0.15287447
0.63724744 0.31269693 0.040495988 0.115431696 -0.6788825 0.45219553 0.21426782 0.5752852
0.0787289 0.3238969 0.19267432 -0.084206454 0.2850239 0.7553818 -0.0050733644 0.88962764
-0.35919845 0.116088785 0.34680387 0.48279893 0.6284497 -0.36443514 0.050825085 0.63359225
-0.39087465 -0.31588858 0.13490753 -0.43769622 -0.0069126813 0.36030057 -0.0014686566 0.38821286
-0.20166306 0.5084531 -0.30941328 -0.2875184 0.24845609 0.089852676 -0.025014354 -0.4834697
-0.3212428 0.3139756 -0.30432847 -1.175747 0.41560397 0.6688285 0.17554747 0.25431126
-0.036177736 -0.31521308 -0.4759594 0.23777172 0.16736692 -0.51330674 0.1627931 -0.39488858
-0.37191734 0.35105905 0.3368289 -0.11536447 -1.1504464 0.8056933 1.1118196 0.4380859
0.76985735 -0.1368497 0.13527304 0.16565096 -0.3917218 0.24548307 0.21414828 0.2791405
-0.5054708 0.9000705 0.0016290753 -0.3285501 0.2868717 0.36725935 0.22025234 0.829472
-0.24394757 -0.65525436 -0.21913047 0.40800825 0.4636848 -0.32999253 0.48143798 0.6492636
-0.6577958 0.5790613 0.5244874 -0.4594066 -0.67171705 0.19325057 0.47254932 0.7915214
-0.0030083265 0.47662732 0.164677 0.011367297 0.3797234 0.2089349 0.28142712 0.30008802
0.18022113 1.4303199 0.5991495 -0.6016388 0.63194704 -0.035196375 -0.03901976 0.23567109
00000000: d796 4bbd 1dcc 94be 8e1f ebbe 6764 533f
00000010: 0519 733e b150 8ebe 9a81 6c3f 5c8c 90be
00000020: c7b8 773e 9c7d 003e e14a 223f 929d 00be
00000030: 5d4e f7be eeff 7e3f 1585 ba3e a015 1b3f
00000040: 5a05 943f 9de1 0ebf cf08 afbe c40b 323e
00000050: 2dfb 0abf 9da2 173e 2537 55be f20f c33e
00000060: dd67 3cbf b7ac 883f 6504 803d c7c7 bdbc
00000070: ab64 f4be 1b10 463f 1dd4 8f3d 1da3 c43f
00000080: 5555 213b 7217 a6be cb0c fd3d e37d c9be
00000090: 3960 733e 31c5 893e 29f7 4b3f 7b3d 90bb
000000a0: cf74 f9be e9e6 153e ff0d 423e df45 47be
000000b0: bc1d 15be 752b 013e 599e d23e ab86 2abe
000000c0: 8a23 003f d166 efbe b0d5 893c abc3 853e
000000d0: e2a3 c0bd e1ce cdbc 652d bfbd 847d 1d3f
000000e0: 4920 2a3c 989c 513e b5b8 103f 7897 803e
000000f0: b0f4 bc3e 0c47 4a3e 4202 2cbd 3f70 313f
00000100: f63e 5ebf 0f19 8ebe bb72 01bf 388e 343e
00000110: 3e29 f23e e2e6 48be 66a9 a3be 4fa7 cc3e
00000120: f3d1 58bd 6a9f e5be ffa6 9c3c 9427 1bbe
00000130: d87c 42bf 9a65 cf3e d4fe 9abc 20b8 e23e
00000140: 3f32 133f 5b5d 13bf cab0 b4be 61e1 16bd
00000150: d914 3d3e 1281 bc3b 738b 763e 8ed5 51bd
00000160: 58d5 1abf afa7 893e 8263 8d3e a712 2ebf
00000170: 211c 01be 9f6e 473d c35e d63e af48 e83e
00000180: 7d10 debe 5f4d 92be e381 533e e697 c73e
00000190: faec 8d3e 8502 db3c b22a 07bf 51f8 243f
000001a0: 6c4c 45bf e37e 413f b7ba e33e 95bd a5be
000001b0: d0ff 07be b771 5b3e 2678 043f 2f26 df3e
000001c0: 2e49 3bbe d882 aa3e 0a3d a4be ba68 023e
000001d0: c22e 9a3e f339 0a3f 9ed8 4fbd 93e1 0a3e
000001e0: c903 dcbd 4434 1f3f 7295 623c 5c76 12bf
000001f0: b5de ca3d c322 aa3e 0567 0fbf b6f9 1b3e
00000200: 8c00 71be bac3 39bf e805 1abf 27f8 97be
00000210: 08cd 38be c230 893d 8d06 623f 4aca 333e
00000220: 62e4 1bbf b3b1 82be e3c2 413e 727a a43d
00000230: 7b4d cdbe f776 d93e 74ac ac3e 208b 1c3e
00000240: a622 233f d019 a03e 1fdf 253d 7467 ec3d
00000250: 3ecb 2dbf 2c86 e73e 0669 5b3e e445 133f
00000260: 9e3c a13d d1d5 a53e 6b4c 453e 6f74 acbd
00000270: a7ee 913e b460 413f 773e a6bb a3be 633f
00000280: dce8 b7be f5bf ed3d 4790 b13e 6c31 f73e
00000290: 14e2 203f 3e97 babe f72d 503d 1a33 223f
000002a0: b920 c8be 26bc a1be 3325 0a3e b819 e0be
000002b0: c683 e2bb 5179 b83e f07f c0ba d6c3 c63e
000002c0: c380 4ebe fb29 023f 6b6b 9ebe 9d35 93be
000002d0: 466b 7e3e ae04 b83d e7ea ccbc 5789 f7be
000002e0: f079 a4be 69c1 a03e f1d0 9bbe e17e 96bf
000002f0: 0bca d43e 5838 2b3f b7c2 333e 1635 823e
00000300: 1b2f 14bd 9c63 a1be f3b0 f3be 6e7a 733e
00000310: 3c62 2b3e 1268 03bf 3cb3 263e d62e cabe
00000320: f36b bebe 03be b33e d674 ac3e 3544 ecbd
00000330: d441 93bf eb41 4e3f 1b50 8e3f cc4c e03e
00000340: 5f15 453f 5422 0cbe 0485 0a3e 68a0 293e
00000350: c38f c8be ea5f 7b3e b049 5b3e 81eb 8e3e
00000360: 8966 01bf 056b 663f b286 d53a b837 a8be
00000370: d9e0 923e 6b09 bc3e d489 613e 4758 543f
00000380: 64cd 79be c0be 27bf bd63 60be 75e6 d03e
00000390: 1868 ed3e c8f4 a8be 0a7f f63e 2436 263f
000003a0: 4e65 28bf 5d3d 143f ce44 063f 5837 ebbe
000003b0: a6f5 2bbf 7ae3 453e fcf1 f13e 25a1 4a3f
000003c0: 5827 45bb 7f08 f43e 16a1 283e e63d 3a3c
000003d0: 1b6b c23e 08f3 553e 3717 903e 23a5 993e
000003e0: e38b 383e b914 b73f dd61 193f 0005 1abf
000003f0: 48c7 213f 132a 10bd 2fd3 1fbd c353 713e

lstm.bias_ih_l0 f4 [128]
1.0506263 0.35055497 0.40419483 0.37824866 0.74465555 0.41059697 0.27469373 0.3994233
0.53938574 0.5460685 0.5380387 0.43459162 0.2974713 0.31348774 0.5350711 0.58765775
0.3306675 0.6042838 0.34006023 0.13165809 0.65325123 0.33701882 0.50123465 0.4251879
0.16771235 0.40678847 0.3708538 0.7189518 0.6459666 0.4966478 0.52646935 0.7554046
-0.1865618 0.074672736 -0.25350544 0.23954846 -0.074067 -0.07957645 0.2787379 0.18724796
-0.03911126 -0.14201759 -0.19466987 -0.0889421 -0.10013983 -0.020996924 -0.082915395 -0.07640024
0.22814998 -0.27716693 0.05387004 -0.030555433 0.1632956 -0.007445382 -0.20364107 0.39395964
-0.18868446 0.44154167 0.5402103 0.26795024 0.3390415 0.07326057 0.047076765 -0.014258196
0.13282947 0.31327784 0.32647422 0.09253428 0.113567635 0.035685074 0.09480777 -0.11551863
0.26989537 -0.23999757 0.14864333 0.07814218 0.05048056 0.12977992 -0.16100666 -0.1293947
-0.009900928 -0.022002807 -0.17933477 -0.16794926 0.18620007 0.21576203 -0.12977247 0.07304619
0.2056843 0.06575969 -0.09865381 -0.2645382 -0.11338186 0.18470158 0.24390458 0.48132378
0.82281166 0.33921304 0.28784844 -0.08667675 0.5201623 0.19161065 0.28299606 0.46630058
0.39195472 0.28609744 0.3576978 0.5028162 0.23394784 0.079386584 0.3581457 0.20501061
0.39367014 0.6909977 0.42068133 0.36182842 0.8933473 0.07722186 0.5386007 0.43163434
0.38595098 0.45830587 0.55632037 0.4929016 0.7006649 0.18928827 0.41759974 0.28741217
00000000: ec7a 863f f17b b33e a0f2 ce3e cfa9 c13e
00000010: bfa1 3e3f c439 d23e a8a4 8c3e 3681 cc3e
00000020: 2f15 0a3f 25cb 0b3f e7bc 093f cb82 de3e
00000030: 294e 983e 7781 a03e 6bfa 083f bd70 163f
00000040: 404d a93e 58b2 1a3f 601c ae3e 61d1 063e
00000050: 793b 273f bb8d ac3e ea50 003f 3ab2 d93e
00000060: c9bc 2b3e 9446 d03e 8de0 bd3e 3a0d 383f
00000070: 115e 253f 9f48 fe3e b2c6 063f 3262 413f
00000080: 0e0a 3fbe 05ee 983d 77cb 81be 314c 753e
00000090: 70b0 97bd faf8 a2bd bcb6 8e3e eebd 3f3e
000000a0: 2133 20bd 0f6d 11be 8a57 47be 4727 b6bd
000000b0: 1c16 cdbd be01 acbc 8ccf a9bd bb77 9cbd
000000c0: 26a0 693e d3e8 8dbe d5a6 5c3d 634f fabc
000000d0: f636 273e 64f8 f3bb 4987 50be 14b5 c93e
000000e0: 8036 41be c011 e23e 394b 0a3f c630 893e
000000f0: d996 ad3e a309 963d 91d3 403d 359b 69bc
00000100: 7304 083e f465 a03e a127 a73e 9d82 bd3d
00000110: 2696 e83d 832a 123d 932a c23d 0895 ecbd
00000120: ba2f 8a3e ecc1 75be f535 183e 0209 a03d
00000130: b4c4 4e3d 07e5 043e eede 24be 0b80 04be
00000140: 8037 22bc 3b3f b4bc 89a3 37be e4fa 2bbe
00000150: 3bab 3e3e b9f0 5c3e 13e3 04be 3e99 953d
00000160: e89e 523e 04ad 863d 020b cabd 8d71 87be
00000170: c034 e8bd 6922 3d3e 1fc2 793e 1270 f63e
00000180: c9a3 523f 55ad ad3e df60 933e 9483 b1bd
00000190: 5b29 053f 9535 443e dce4 903e f3be ee3e
000001a0: 4aae c83e 5d7b 923e 2b24 b73e 90b8 003f
000001b0: 0690 6f3e 6f95 a23d e05e b73e 4dee 513e
000001c0: 228f c93e 3ae5 303f 8b63 d73e 9341 b93e
000001d0: 69b2 643f 7f26 9e3d bce1 093f 2dff dc3e
000001e0: 5e9b c53e 11a7 ea3e 036b 0e3f 995d fc3e
000001f0: c65e 333f c9d4 413e a2cf d53e b027 933e

lstm.bias_hh_l0 f4 [128]
1.2809538 0.45258504 0.343936 0.27009436 0.5638204 0.48638806 0.38260818 0.2996356
0.65952677 0.45974416 0.49329388 0.6604334 0.38407025 0.1728608 0.61819696 0.6435209
0.51213986 0.38319626 0.4549998 0.28363943 0.84451234 0.38778666 0.6277546 0.35111165
0.4123533 0.55535233 0.6422025 0.6371322 0.3636052 0.40825203 0.42216235 0.7623831
-0.3124339 0.008154994 -0.11061763 0.41942763 -0.21896195 0.19990166 0.29836804 0.28544208
-0.08531073 -0.3118975 -0.32783735 -0.011735374 0.060727783 -0.18599671 -0.21453334 -0.11894124
0.3048786 -0.15211724 -0.056951616 -0.06541419 0.054679558 -0.16924989 -0.08891455 0.23339301
-0.112933606 0.40467998 0.6192668 0.17287455 0.2765162 0.24054998 -0.1525477 0.29915
0.41718736 0.26769888 0.16658428 -0.13271041 0.11315133 -0.18926509 0.10719891 0.18711574
0.2360825 -0.311374 0.15653518 -0.079259336 0.13964294 0.12840323 -0.44271383 -0.44861165
0.17644359 0.12230604 -0.0035926464 -0.20889363 0.15793009 0.07499625 -0.15292047 -0.034362927
0.06307176 0.17755415 0.06427665 -0.04908473 -0.13146849 0.3215382 0.29932976 0.34154975
0.99042445 0.40450117 0.53023833 0.039019477 0.37510094 0.2232147 0.51202226 0.35474345
0.38997903 0.5516363 0.31258518 0.38438556 0.17053784 0.035386227 0.4803283 0.41293225
0.20708853 0.43854162 0.2740548 0.13907968 0.93455714 0.33073345 0.5819224 0.4630441
0.119969666 0.47451177 0.52040356 0.5577383 0.6705601 0.07520896 0.51086646 0.47333372
00000000: 4bf6 a33f 3ab9 e73e 6118 b03e cf49 8a3e
00000010: 8956 103f db07 f93e 38e5 c33e d669 993e
00000020: bfd6 283f 9663 eb3e 0491 fc3e 2a12 293f
00000030: dba4 c43e 6c02 313e 2842 1e3f c9bd 243f
00000040: 991b 033f 4d32 c43e bcf5 e83e 3039 913e
00000050: f631 583f f98b c63e 87b4 203f e8c4 b33e
00000060: f91f d33e 922b 0e3f 6267 243f 191b 233f
00000070: 762a ba3e 6906 d13e aa25 d83e 8a2b 433f
00000080: 56f7 9fbe 869c 053c 7f8b e2bd 38bf d63e
00000090: 9037 60be 05b3 4c3e b2c3 983e 7725 923e
000000a0: 64b7 aebd 07b1 9fbe 4cda a7be ba45 40bc
000000b0: b2bd 783d ec75 3ebe a1ae 5bbe 7797 f3bd
000000c0: 0c19 9c3e 9fc4 1bbe 1946 69bd e0f7 85bd
000000d0: acf7 5f3d d84f 2dbe d518 b6bd 94fe 6e3e
000000e0: bc49 e7bd 3732 cf3e 4588 1e3f 0706 313e
000000f0: 8893 8d3e bc52 763e 7735 1cbe 302a 993e
00000100: 9599 d53e d40f 893e 1295 2a3e 3de5 07be
00000110: e2bb e73d b5ce 41be 1a8b db3d 459b 3f3e
00000120: 9cbf 713e 6a6c 9fbe c24a 203e b852 a2bd
00000130: 8ffe 0e3e 237c 033e 63ab e2be 6db0 e5be
00000140: a1ad 343e 977b fa3d 9b72 6bbb 36e8 55be
00000150: 6db8 213e a297 993d 2f97 1cbe 24c0 0cbd
00000160: c42b 813d c1d0 353e 7aa3 833d 120d 49bd
00000170: ad9f 06be a8a0 a43e c041 993e 9cdf ae3e
00000180: 758c 7d3f c71a cf3e b3bd 073f e3d2 1f3d
00000190: 3b0d c03e 6592 643e e413 033f efa0 b53e
000001a0: 55ab c73e 0938 0d3f 2a0b a03e 2fce c43e
000001b0: 79a1 2e3e 26f1 103d 97ed f53e db6b d33e
000001c0: 040f 543e 8788 e03e e950 8c3e e76a 0e3e
000001d0: 233f 6f3f e555 a93e def8 143f 1e14 ed3e
000001e0: a8b2 f53d 35f3 f23e 2b39 053f f0c7 0e3f
000001f0: d4a9 2b3f 2807 9a3d 25c8 023f cc58 f23e

lstm.weight_ih_l1 f4 [128, 32]
-0.65075314 -0.17046039 -0.097072996 -0.024570648 -0.2567302 -0.23689725 -0.16362497 -0.024006195
0.05234509 0.2275722 0.0015917609 0.3202783 -0.73238885 0.043279417 0.4855726 0.29379883
0.14494887 -0.12842539 -0.19911079 0.040490773 -0.119782664 -0.30521667 -0.09957021 -0.34962508
0.15150516 -0.04789332 -0.18836597 -0.025871156 -0.24997227 0.53596693 -0.7225225 0.23389974
-0.17669094 -0.052999686 -0.1283939 -0.008860796 -0.8696623 -0.018229308 0.3636551 -0.5431167
0.43032193 -0.49729607 -0.013925607 -0.63297725 -0.009232325 -0.19449544 -0.7259693 0.12835367
0.3652576 -0.37352157 0.66553897 -0.42595866 -0.18810436 0.52276725 -0.51348615 0.4864417
-0.4535209 -0.31685194 0.4196613 -0.07046938 0.22172734 0.53756595 0.41067266 0.24462642
-0.6553551 -0.711576 -0.49820614 0.22426458 0.05701306 0.16210827 0.09057138 0.2250155
-0.0068950076 0.63670385 0.8454199 0.6991584 0.19746916 -0.02735134 0.19878621 0.2947078
0.90026677 -0.40306598 0.43268776 -0.2897002 -0.48380467 0.11654238 -0.35479784 0.28908435
-0.40481156 0.34339288 0.38211572 -0.62809014 0.6739192 0.047370475 -0.09632119 -0.057493933
0.026148016 0.09009016 0.5714393 0.084681176 0.17676094 -0.9803345 0.3014818 0.27199066
-0.18930084 0.29734772 0.10807168 -0.14834587 -0.24138086 0.56526136 0.47264728 0.34634018
-0.1261179 -0.057133038 0.58703595 -0.402888 0.6295564 -0.2859211 -0.052904658 -0.15692134
-0.2398621 0.27053487 -0.033216607 -0.9038278 -0.036478024 0.37279153 0.30327472 -0.034050733
0.56557995 0.23564625 0.5241355 -0.083067566 -0.114753634 -0.48408392 0.9530848 -0.37656307
-0.32183665 -1.2170484 -0.1084752 -0.52302104 -0.83841515 0.18162742 -0.30114812 -0.118980445
0.33840838 0.1822891 -0.27094483 -0.25264755 0.073548906 0.2583231 0.17513008 0.08678115
-0.14770003 0.25346932 0.09145372 -0.78621393 -0.46773335 0.53533524 0.58765113 0.38748723
-0.29890648 -0.05069135 0.43285176 0.02991223 0.34104344 -0.55838704 0.4507789 0.3245858
-0.13978198 -1.0995885 0.039003756 -0.08695473 -0.7812086 0.31432113 -0.52994275 0.19318464
0.7227188 0.3650846 0.15832864 -0.6669291 0.5545724 0.7063711 0.57433856 -0.50462985
-0.102639556 0.13395566 -0.18359187 -0.8202068 0.13681278 0.32497182 0.608184 0.26262546
-0.17222542 0.36379257 0.39355746 -0.2990212 0.48378858 -0.5977719 -0.17449881 0.4974353
-0.22867486 -0.744662 -0.6334691 -0.8497026 -0.16399677 0.19771664 -0.50254685 -0.3003687
-0.072419465 0.7049444 -0.47168228 -0.30113688 1.0234511 0.09928939 0.13475704 -0.115777716
0.1425471 0.31687316 -0.36781764 -0.70941573 0.14647712 -0.11546918 0.5897428 -0.040324185
-0.045110427 -0.33829632 -0.03583599 0.26317093 -0.017787693 -0.058705524 0.73776114 -0.081288084
-0.28839692 -0.2176181 0.7828055 -0.39553723 -0.2985579 -0.09037916 0.06431064 0.6251396
0.32446572 0.33460513 -0.07294391 -0.27712417 -0.19903137 0.32799688 0.035233144 -0.0052632615
-0.6168343 0.06312464 0.26764804 3.980639e-06 -0.08440715 0.6207448 -0.09163428 0.43576074
00000000: c297 26bf 2b8d 2ebe 35ce c6bd 6248 c9bc
00000010: 2472 83be 3195 72be 4e8d 27be a4a8 c4bc
00000020: ce67 563d b008 693e a2a2 d03a 84fb a33e
00000030: d67d 3bbf c245 313d f99c f83e cd6c 963e
00000040: 7a6d 143e f281 03be b3e3 4bbe a7d9 253d
00000050: 9d50 f5bd 5c45 9cbe 77eb cbbd 0f02 b3be
00000060: 2b24 1b3e c92b 44bd 02e3 40be bfef d3bc
00000070: bbf8 7fbe 2135 093f 3cf7 38bf 6a83 6f3e
00000080: 78ee 34be 3316 59bd b179 03be df2c 11bc
00000090: 30a2 5ebf a155 95bc 0031 ba3e b209 0bbf
000000a0: 2853 dc3e 979d febe 3b28 64bc cc0a 22bf
000000b0: 2d43 17bc d029 47be 20d9 39bf 256f 033e
000000c0: 0b03 bb3e 383e bfbe c360 2a3f 4117 dabe
000000d0: 6e9e 40be 13d4 053f d473 03bf e30e f93e
000000e0: e433 e8be 6b3a a2be d9dd d63e 4052 90bd
000000f0: 7e0c 633e ec9d 093f b043 d23e 597f 7a3e
00000100: 5ac5 27bf d829 36bf e014 ffbe 9da5 653e
00000110: 8786 693d b6ff 253e 7d7d b93d 776a 663e
00000120: 84ef e1bb 06ff 223f 706d 583f 0bfc 323f
00000130: 5b35 4a3e eb0f e0bc 9d8e 4b3e f1e3 963e
00000140: e277 663f aa5e cebe 4089 dd3e 9653 94be
00000150: 3fb5 f7be c5ad ee3d 10a8 b5be dd02 943e
00000160: 7643 cfbe 31d1 af3e aca4 c33e 84ca 20bf
00000170: f885 2c3f 8b07 423d 0b44 c5bd c27e 6bbd
00000180: 5d34 d63c 3181 b83d d949 123f 536d ad3d
00000190: d200 353e 34f7 7abf d35b 9a3e 5c42 8b3e
000001a0: 14d8 41be f63d 983e af54 dd3d fbe7 17be
000001b0: 8b2c 77be f8b4 103f d3fe f13e 8053 b13e
000001c0: 0d25 01be 5504 6abd fd47 163f 5647 cebe
000001d0: 9c2a 213f 4064 92be 8eb2 58bd fdaf 20be
000001e0: 699e 75be 8c83 8a3e 230e 08bd 4261 67bf
000001f0: fb69 15bd 88de be3e d346 9b3e c878 0bbd
00000200: d9c9 103f 404d 713e be2d 063f 541f aabd
00000210: f403 ebbd d9d9 f7be 5efd 733f e0cc c0be
00000220: c6c7 a4be 3ec8 9bbf 3f28 debd b5e4 05bf
00000230: 60a2 56bf 8afc 393e 1630 9abe 05ac f3bd
00000240: dd43 ad3e fea9 3a3e 48b9 8abe 055b 81be
00000250: cfa0 963d ed42 843e 4d55 333e 51ba b13d
00000260: ad3e 17be bbc6 813e 174c bb3d 5145 49bf
00000270: bf7a efbe bb0b 093f 4e70 163f ba64 c63e
00000280: 450a 99be bca1 4fbd bf9e dd3e 7e0a f53c
00000290: 3f9d ae3e 74f2 0ebf 7ecc e63e 1c30 a63e
000002a0: 0223 0fbe 51bf 8cbf 67c2 1f3d 5215 b2bd
000002b0: 49fd 47bf b3ee a03e 54aa 07bf 32d2 453e
000002c0: 1904 393f 5eec ba3e e720 223e debb 2abf
000002d0: 75f8 0d3f bdd4 343f da07 133f 6c2f 01bf
000002e0: b034 d2bd ac2b 093e 82ff 3bbe 13f9 51bf
000002f0: a618 0c3e b562 a63e f2b1 1b3f d876 863e
00000300: dc5b 30be 0543 ba3e 5d80 c93e 4f19 99be
00000310: 23b3 f73e 9407 19bf d1af 32be d7af fe3e
00000320: be29 6abe 2ba2 3ebf 082b 22bf 1c86 59bf
00000330: c5ee 27be 3b76 4a3e e9a6 00bf edc9 99be
00000340: a850 94bd 3c77 343f 5780 f1be 9d2e 9abe
00000350: 7200 833f 3c58 cb3d c0fd 093e de1c edbd
00000360: def7 113e 333d a23e 9852 bcbe 459c 35bf
00000370: 19fe 153e 1b7b ecbd 62f9 163f f92a 25bd
00000380: b6c5 38bd 2d35 adbe c2c8 12bd 57be 863e
00000390: 7fb7 91bc 3475 70bd eadd 3c3f 5e7a a6bd
000003a0: c3a8 93be 47d7 5ebe f165 483f db83 cabe
000003b0: 95dc 98be b618 b9bd 4cb5 833d 2609 203f
000003c0: 5f20 a63e 5d51 ab3e 9e63 95bd 38e3 8dbe
000003d0: e1ce 4bbe 35ef a73e a150 103d 7077 acbb
000003e0: dae8 1dbf 7e47 813d 2a09 893e 6e91 8536
000003f0: a8dd acbd 22e9 1e3f c1aa bbbd 081c df3e

lstm.weight_hh_l1 f4 [128, 32]
-0.02698443 0.06350415 0.033750206 -0.34815624 0.030037597 -0.4222124 -0.02265795 0.47424197
0.4209927 -0.2101838 -0.40063894 0.36555156 -0.086977996 -0.3946013 0.073734954 -0.16595094
-0.2758934 -0.80704844 0.055163234 0.036215313 -0.17898093 0.20891774 -0.107725106 0.21411231
0.27547112 -0.060434118 0.37972274 -0.1765895 0.7234368 0.2929982 0.5550966 -0.05195769
0.12120181 0.2575091 0.618469 -0.356203 0.29356205 -0.42808807 -0.6111586 0.5252788
-0.38354316 0.4271742 0.050161142 -0.60003644 1.1254464 -0.06000064 0.1905444 -0.21467803
-0.13352625 -0.0981502 0.24934365 0.6922798 0.79693586 -0.90611815 -1.0106679 0.5601324
-0.20317633 0.20793644 0.71865606 -0.21050757 -0.3718205 0.26253444 -0.9487599 0.7447241
-0.33616084 0.009274811 -0.38048756 0.21215685 -0.45107886 0.0023724823 -0.40492302 0.442671
-0.5269087 0.35373455 0.16986975 -0.38287652 0.20071945 -0.11590672 -0.25070882 0.3515124
0.5086388 -0.25763848 -0.29533896 -0.41689578 -0.21382962 0.04726714 0.42838842 -0.3820687
0.42444646 0.21541949 0.4316785 0.5940193 -0.5780517 -0.3497943 -0.29704133 -0.20848238
-0.06251111 0.40095052 0.021865182 0.08353717 -0.37202892 0.13674305 -0.3749406 0.42000282
-0.30080533 -0.11795247 0.19730525 0.14168009 0.58864117 0.32691363 -0.13663483 0.50544584
0.19984598 -0.059025258 -0.18522963 0.046200264 -0.47976533 0.2737077 0.03323001 0.3909411
-0.08034182 -0.08406193 0.16090485 -0.25108004 0.058565795 -0.055816017 0.542183 0.3036539
0.36683896 0.5249367 -0.30207908 -0.024733588 -0.19943905 -0.35880962 -0.425729 0.19993135
-0.068897106 0.15437089 -0.13897097 -0.52143604 0.5861052 -0.078026086 0.13362667 -0.038260456
-0.42958355 -0.07760564 -0.066428676 0.41921207 0.2300928 -0.029785935 0.17492117 0.44026992
-0.2989135 0.41402325 0.22021322 0.31503603 -1.5454671 0.045919478 0.03590368 -0.118503384
-0.25051737 0.7600296 -0.32813936 0.34866518 0.18278436 0.014495493 -0.99251974 0.0016837387
-0.54624987 0.050393622 -0.6607345 0.015487794 0.9485736 0.3846567 0.37690216 0.12242886
0.76672256 -0.55627364 -0.17826603 -1.2255219 -0.045556057 0.106438614 -0.15106529 0.66655236
0.32255512 0.8516198 0.1697705 0.2947205 -1.7161233 -0.28055146 -0.22659741 0.008084922
-0.20322819 -0.18373221 -0.32253912 0.52069116 -0.70569986 -0.5759105 -0.038824476 0.2561859
-1.2250637 -0.015300493 -0.18906024 -0.84656894 0.3012349 0.6588683 -0.4833555 0.16797157
-0.7617245 -0.4491707 1.2368878 0.22836691 -0.06351315 -0.28554025 0.3324036 0.56525975
0.56473625 0.2494904 0.4809435 0.07667083 -0.47382277 0.469053 -1.0466843 0.8653824
-0.20523335 1.1358203 -0.3272233 0.09829256 0.4912792 0.83175796 -1.1808763 -0.3388386
-0.4303548 0.7565775 -0.90672106 -0.542382 0.8681888 -0.2535908 0.2602743 0.77902216
0.8973617 -0.02356973 -1.3818564 -0.9289703 0.37016138 -0.0049795783 0.3527843 0.5789989
0.25233266 0.83831465 0.21678466 -0.1559061 -1.2244244 -1.0134851 0.027373327 -0.4901373
00000000: 740e ddbc 770e 823d a83d 0a3d 8941 b2be
00000010: 6811 f63c 392c d8be 2a9d b9bc d8cf f23e
00000020: 5b8c d73e 6c3a 57be 8c20 cdbe 9329 bb3e
00000030: 8521 b2bd 2e09 cabe 5a02 973d 0bef 29be
00000040: e641 8dbe ba9a 4ebf d8f2 613d 8256 143d
00000050: c746 37be 88ee 553e fb9e dcbd 4240 5b3e
00000060: 8d0a 8d3e c489 77bd 056b c23e e1d3 34be
00000070: 2733 393f dc03 963e d01a 0e3f 96d1 54bd
00000080: a838 f83d 3cd8 833e fc53 1e3f 3d60 b6be
00000090: c44d 963e 5c2e dbbe e474 1cbf ac78 063f
000000a0: c55f c4be 94b6 da3e c575 4d3d fd9b 19bf
000000b0: a10e 903f 3bc3 75bd 121e 433e 8fd4 5bbe
000000c0: 1bbb 08be f902 c9bd f153 7f3e 4039 313f
000000d0: fd03 4c3f 5cf7 67bf 915d 81bf d664 0f3f
000000e0: 750d 50be 4aed 543e d8f9 373f 4c8f 57be
000000f0: 425f bebe ea6a 863e eee1 72bf 3da6 3e3f
00000100: 461d acbe 60f5 173c 44cf c2be a53f 593e
00000110: cff3 e6be a67b 1b3b 1252 cfbe c6a5 e23e
00000120: 7de3 06bf b21c b53e 56f2 2d3e 6408 c4be
00000130: 6689 4d3e 8160 edbd e85c 80be 6ff9 b33e
00000140: 2736 023f 31e9 83be ab36 97be 5d73 d5be
00000150: 27f6 5abe 309b 413d ba55 db3e 829e c3be
00000160: 0c51 d93e ed96 5c3e f704 dd3e a611 183f
00000170: 32fb 13bf 3d18 b3be cd15 98be 687c 55be
00000180: d305 80bd 6349 cd3e 9c1e b33c 8915 ab3d
00000190: 937a bebe 5f06 0c3e 37f8 bfbe 9c0a d73e
000001a0: 2803 9abe 1191 f1bd 630a 4a3e 9614 113e
000001b0: 30b1 163f 3961 a73e 00ea 0bbe e664 013f
000001c0: 6da4 4c3e 78c4 71bd d6ac 3dbe 7d3c 3d3d
000001d0: cda3 f5be 6a23 8c3e 311c 083d 6f29 c83e
000001e0: 418a a4bd a928 acbd 3ec4 243e 908d 80be
000001f0: b0e2 6f3d 569f 64bd 81cc 0a3f 8678 9b3e
00000200: 51d2 bb3e 4062 063f 1caa 9abe 189e cabc
00000210: c039 4cbe e5b5 b7be 27f9 d9be ceba 4c3e
00000220: ed19 8dbd 6713 1e3e 684e 0ebe d57c 05bf
00000230: fe0a 163f 24cc 9fbd 6ed5 083e ffb6 1cbd
00000240: 60f2 dbbe b5ef 9ebd c20b 88bd f7a2 d63e
00000250: 729d 6b3e a201 f4bc 891e 333e 0f6b e13e
00000260: 310b 99be dbfa d33e 937f 613e 674c a13e
00000270: ded1 c5bf 1016 3c3d bd0f 133d e7b1 f2bd
00000280: d043 80be 4d91 423f e201 a8be 3e84 b23e
00000290: d32b 3b3e 817e 6d3c c615 7ebf e5b0 dc3a
000002a0: 08d7 0bbf 8b69 4e3d e525 29bf 84c0 7d3c
000002b0: b8d5 723f b9f1 c43e 52f9 c03e fbbb fa3d
000002c0: ee47 443f f367 0ebf 5f8b 36be e7dd 9cbf
000002d0: fd98 3abd 7dfc d93d dcb0 1abe 2da3 2a3f
000002e0: f225 a53e c103 5a3f 51d8 2d3e 9be5 963e
000002f0: eea9 dbbf 71a4 8fbe 2709 68be 9f76 043c
00000300: 0d1b 50be 4c24 3cbe d923 a5be 044c 053f
00000310: bfa8 34bf df6e 13bf 6a06 1fbd cc2a 833e
00000320: e3ce 9cbf ebae 7abc 0299 41be beb8 58bf
00000330: 763b 9a3e 98ab 283f 5f7a f7be bd00 2c3e
00000340: 6000 43bf b4f9 e5be 5752 9e3f 04d9 693e
00000350: 2f13 82bd 5532 92be ce30 aa3e ddb4 103f
00000360: 8e92 103f 697a 7f3e 3a3e f63e 9905 9d3d
00000370: e698 f2be b727 f03e c0f9 85bf b389 5d3f
00000380: b128 52be 8f62 913f d089 a7be 9c4d c93d
00000390: f388 fb3e 17ee 543f f426 97bf 417c adbe
000003a0: 7757 dcbe 10af 413f df1e 68bf 8cd9 0abf
000003b0: 9f41 5e3f a7d6 81be ac42 853e ff6d 473f
000003c0: 7fb9 653f 4e15 c1bc ace0 b0bf ffd0 6dbf
000003d0: cb85 bd3e bb2b a3bb 25a0 b43e 4639 143f
000003e0: bf31 813e ca9b 563f ccfc 5d3e d9a5 1fbe
000003f0: f0b9 9cbf e1b9 81bf 073e e03c 47f3 fabe

lstm.bias_ih_l1 f4 [128]
0.012960226 0.10685921 0.1945312 -0.009661345 0.18395561 0.008748856 0.2050386 0.1644826
0.1353778 0.14276424 0.33796024 -0.026042877 0.52059925 0.18393907 0.20931853 0.14517516
0.44595024 -0.032649927 0.21741019 0.25351596 0.29721928 0.55164963 0.4360242 -0.18122965
0.25537428 0.15319827 0.4813538 0.10830637 0.016532706 0.28483537 0.4721356 0.004771594
-0.07072293 -0.1270634 -0.1807442 0.063008055 -0.06886323 0.05715489 0.060639296 -0.26332214
-0.40169886 -0.43124947 -0.37199444 0.030197045 -0.04299805 -0.030173037 -0.307501 -0.118017085
-0.6445484 0.13356528 -0.56052876 -0.30476615 0.015484156 -0.23168676 0.18267186 0.22218005
-0.16945799 -0.06822571 -0.27231345 -0.27074376 0.022945566 -0.3374613 -0.37459403 -0.0049139257
0.066918544 0.032440566 0.10683193 -0.03469929 -0.07679042 0.14049833 -0.17042033 0.05877994
0.03704017 -0.19607796 0.040215246 -0.38688076 0.15024209 -0.15260729 -0.09545975 0.09101827
-0.1644799 -0.25266477 0.08707997 0.048305687 0.007837858 0.044568032 -0.0827934 -0.06857893
0.020934137 0.2941937 -0.08816133 -0.12690207 0.15721083 0.13250527 0.115249805 0.18826231
0.30819052 0.41419163 -0.08264593 0.09366382 0.15952621 0.10327724 0.3553394 0.42590415
0.10271497 0.2725275 0.28472093 0.019101605 0.461954 0.1980548 0.22261003 0.046629537
0.6469179 -0.24121687 0.3445822 0.12521447 -0.0066264747 0.56855965 0.3849932 0.06376585
0.28485626 0.07700907 0.3344683 0.13588391 0.0451054 0.56315017 0.14086117 0.06946198
00000000: 2157 543c 00d9 da3d 3033 473e 9e4a 1ebc
00000010: dc5e 3c3e 5d57 0f3c a4f5 513e 206e 283e
00000020: 7aa0 0a3e ca30 123e 2009 ad3e df57 d5bc
00000030: fe45 053f 865a 3c3e 9957 563e cca8 143e
00000040: 9753 e43e eebb 05bd c7a0 5e3e d8cc 813e
00000050: 202d 983e e938 0d3f 903e df3e 4494 39be
00000060: 6bc0 823e 02e0 1c3e 0174 f63e bbcf dd3d
00000070: 996f 873c f1d5 913e c2bb f13e 085b 9c3b
00000080: 2fd7 90bd e81c 02be 0215 39be 5e0a 813d
00000090: 2a08 8dbd 3f1b 6a3d e960 783d 29d2 86be
000000a0: 79ab cdbe bbcc dcbe 0e76 bebe cb5f f73c
000000b0: b91e 30bd 722d f7bc c570 9dbe f1b2 f1bd
000000c0: 2001 25bf 56c5 083e d07e 0fbf 4f0a 9cbe
000000d0: 42b1 7d3c 4b3f 6dbe 550e 3b3e 2b83 633e
000000e0: 6586 2dbe ecb9 8bbd ab6c 8bbe ed9e 8abe
000000f0: 57f8 bb3c bac7 acbe caca bfbe ff04 a1bb
00000100: 970c 893d 66e0 043d b3ca da3d d820 0ebd
00000110: 4c44 9dbd cbde 0f3e ab82 2ebe 3cc3 703d
00000120: 6fb7 173d a9c8 48be beb8 243d 3c15 c6be
00000130: 10d9 193e 1645 1cbe 6780 c3bd c967 ba3d
00000140: 6b6d 28be 475d 81be fc56 b23d 2fdc 453d
00000150: 5c6a 003c f88c 363d 968f a9bd 1c73 8cbd
00000160: 117e ab3c 8fa0 963e ed8d b4bd 9ef2 01be
00000170: e0fb 203e 76af 073e 1708 ec3d d6c7 403e
00000180: 26cb 9d3e ed10 d43e 4542 a9bd d1d2 bf3d
00000190: d75a 233e 0583 d33d 0cef b53e 1c10 da3e
000001a0: 3a5c d23d b988 8b3e f1c6 913e f87a 9c3c
000001b0: 3c85 ec3e e1ce 4a3e e2f3 633e 9dfe 3e3d
000001c0: 699c 253f 8e01 77be 146d b03e 3938 003e
000001d0: e622 d9bb 208d 113f d41d c53e ac97 823d
000001e0: aed8 913e eeb6 9d3d 6e3f ab3e 2725 0b3e
000001f0: 71c0 383d 9c2a 103f e93d 103e 1542 8e3d

lstm.bias_hh_l1 f4 [128]
0.1367606 0.35163823 0.06707431 0.14926557 0.09124988 -0.114784256 0.046037484 0.3865104
0.08159262 0.23307496 0.09394692 0.01388368 0.444006 0.17498894 -0.008608651 0.28144258
0.38126817 0.047316466 0.28955945 0.14704598 0.25862315 0.50241315 0.5092386 -0.081199415
-0.049022425 0.33431327 0.42073086 -0.20876327 0.08698239 0.51322126 0.22876857 0.15389119
-0.33912167 -0.03993247 -0.43998483 0.13042586 0.029511517 -0.26975092 0.13535269 -0.270541
-0.40302736 -0.42645627 -0.31229815 -0.1898325 -0.1305749 -0.019727644 -0.20254731 -0.042599022
-0.78257424 0.15194707 -0.4881275 -0.52599823 -0.035274476 -0.28897873 0.16444974 0.114614464
-0.20488134 -0.31201696 -0.29442382 -0.17147253 -0.16099198 -0.2554878 -0.08766173 0.11579867
0.10365636 0.3272589 0.013912481 -0.011672543 0.1054403 -0.17270947 0.004109869 -0.018852672
0.13416752 -0.10175505 -0.19303283 -0.20404774 0.00054617506 -0.12514317 -0.00073325983 0.06478878
-0.13736871 -0.18662977 0.17878206 0.14669235 -0.03955582 -0.28166658 -0.02341556 0.14724329
0.1265594 0.20969294 0.22155496 0.029771375 -0.13228978 0.26851046 0.107174024 0.22199026
0.22602367 0.38855115 0.071671955 0.048474517 0.17376174 0.21259932 0.29167533 0.2012413
0.00869048 0.1257447 0.31670997 0.036860153 0.3286064 0.48290712 0.34292364 0.06351129
0.43761256 -0.046285372 0.33323145 0.27549502 0.03135739 0.42606643 0.080773525 0.15623684
0.24775992 0.10659298 0.6605239 0.0043158173 -0.07115485 0.39062625 0.1848975 0.027617937
00000000: f90a 0c3e ed09 b43e 415e 893d 13d9 183e
00000010: 38e1 ba3d 0214 ebbd cd91 3c3d b1e4 c53e
00000020: 081a a73d 34ab 6e3e 3e67 c03d 6078 633c
00000030: c154 e33e 4d30 333e 4d0b 0dbc 3e19 903e
00000040: 9535 c33e e9ce 413d 2341 943e 3993 163e
00000050: 416a 843e 269e 003f 765d 023f e14b a6bd
00000060: bdcb 48bd 1c2b ab3e 096a d73e 0ac6 55be
00000070: d323 b23d 7862 033f 4f42 6a3e a795 1d3e
00000080: 5ba1 adbe 3b90 23bd b145 e1be 5b8e 053e
00000090: 23c2 f13c cb1c 8abe e599 0a3e 5a84 8abe
000000a0: 9a59 cebe 7a58 dabe 8be5 9fbe 7363 42be
000000b0: 6db5 05be de9b a1bc 9068 4fbe 507c 2ebd
000000c0: c956 48bf 0398 1b3e d9eb f9be d2a7 06bf
000000d0: f87b 10bd 05f5 93be 8365 283e fdba ea3d
000000e0: 6acc 51be b0c0 9fbe b8be 96be 7f96 2fbe
000000f0: 15db 24be 4ccf 82be fe87 b3bd da27 ed3d
00000100: c949 d43d 7b8e a73e 2df1 633c 323e 3fbc
00000110: 16f1 d73d c0da 30be 14ac 863b eb70 9abc
00000120: 3663 093e f464 d0bd 66aa 45be e4f1 50be
00000130: 302d 0f3a 8825 00be 3c38 40ba fbaf 843d
00000140: 62aa 0cbe e01b 3fbe a512 373e 8536 163e
00000150: 4905 22bd 9a36 90be fdd1 bfbc f2c6 163e
00000160: ca98 013e bfb9 563e 4edf 623e 19e3 f33c
00000170: f976 07be 347a 893e 0e7e db3d 6a51 633e
00000180: c072 673e 2df0 c63e bfc8 923d 378d 463d
00000190: 99ee 313e a3b3 593e 7856 953e 3312 4e3e
000001a0: 8462 0e3c 38c3 003e cf27 a23e acfa 163d
000001b0: 193f a83e 9a3f f73e b093 af3e 3512 823d
000001c0: c10e e03e bb95 3dbd 509d aa3e af0d 8d3e
000001d0: 9b70 003d 6125 da3e 976c a53d 8dfc 1f3e
000001e0: c7b4 7d3e 6c4d da3d 1818 293f b36b 8d3b
000001f0: a2b9 91bd 2a00 c83e c555 3d3e 033f e23c

net.0.weight f4 [16, 32]
-0.039360113 -0.01280662 0.018371223 0.027392706 -0.090613835 -0.09357549 -0.030882495 -0.007447832
-0.3184734 0.073472336 0.053770382 -0.033631194 -0.13536997 0.066705726 -0.0013284117 -0.037837815
-0.24867421 0.066759884 0.4832392 0.3656077 -0.08261924 -0.11114839 0.07322228 0.03039076
0.038902774 -0.20828694 0.002746574 -0.20913906 0.029741198 0.1845781 -0.077105686 0.05600843
-0.03669201 -0.2197746 -0.015604214 -0.58730453 0.5033998 0.37478524 0.0087451 -0.0595715
-0.45668367 -0.038679752 0.05347504 0.116433114 -0.13857394 -0.017915135 -0.15211725 0.08054815
0.04858496 -0.08433198 -0.018017028 0.011955709 -0.06326624 0.1308976 -0.20035325 -0.5133909
0.11963779 -0.064999714 -0.15853992 0.7130431 -0.17640445 -0.05941766 -0.077994846 -0.37723336
-0.04847466 -0.04652558 -0.021838343 -0.5625101 0.45490447 0.5297704 -0.011286241 -0.0063242977
-0.22835869 -0.11674443 -0.030309543 0.095242694 -0.07327398 0.0422262 -0.20573115 0.13840747
0.15528674 -0.022948423 -0.1982144 -0.23620929 -0.08010347 0.12833068 0.056778233 -0.0873292
0.048989378 0.16328976 -0.13863122 1.0744876 -0.062613085 -0.07833154 0.040906563 -0.28745267
0.18665287 -0.005838919 0.007406319 0.08294271 -0.04556034 -0.27849516 -0.024056256 0.058699295
0.0025743563 0.08601742 0.07488959 -0.09166583 -0.10334618 0.007808305 0.028106771 -0.20732342
-0.29331446 0.057705693 0.12610215 0.32202354 -0.026128747 -0.06680711 0.0035907782 0.0049984474
-0.0678624 -0.1553069 0.038510755 -0.1517572 0.009515634 0.13938074 -0.004174904 0.027922995
0.5244761 0.0118713565 0.1409469 0.18250997 -0.09525835 -0.04211995 -0.07850039 0.030597497
-0.042177476 0.01767537 -0.012258615 0.20692788 0.044673216 0.024854245 0.22148894 -0.5407458
-0.0512835 0.3028185 0.042082198 0.074339285 0.05141009 -0.05163189 -0.073126435 0.004349415
-0.18631093 0.066100694 -0.006974619 -0.26929167 -0.017472139 0.02717753 -0.0039702486 0.008235097
0.36407375 0.012031344 0.08874486 0.19308966 -0.16320837 0.07254786 -0.013962682 -0.051082958
0.16262485 -0.11361456 -0.025567887 0.101527974 0.035606384 0.0447176 0.26472896 -0.35792425
-0.04017686 0.4638846 -0.119787425 0.06770441 0.06973085 -0.0815687 -0.0103380205 0.017187117
-0.38676196 0.31755698 0.046893544 0.08551096 0.0059253396 -0.06873281 0.032629628 -0.0026555818
-0.04021318 -0.100430585 0.013289093 -0.6613453 0.49297166 0.56059414 -0.074904725 -0.027558813
-0.19587506 -0.06535031 -0.034838066 0.071004 -0.104211316 -0.034655903 -0.070484795 0.11249793
0.06053283 -0.029211866 -0.021538958 -0.085237436 -0.08234584 0.11252136 -0.19928782 -0.37215427
0.086036526 -0.008350165 -0.089304715 1.2128437 -0.20107773 -0.042359646 -0.1365176 -0.34857228
0.011959055 0.023892073 0.012138256 -0.15991056 0.007415361 0.29827353 0.069963686 0.0496528
0.097877055 -0.29403883 -0.01105769 0.09714898 0.055280305 0.08455972 0.15571289 -0.014510847
0.21586701 0.10606383 -0.16587366 -0.28271136 -0.039554074 -0.035634115 0.010812483 0.035928022
-0.13024966 0.27282307 0.034067567 0.18890761 0.017293239 -0.0862496 0.09279651 0.02430407
00000000: 1238 21bd dcd2 51bc 3f7f 963c ab66 e03c
00000010: bf93 b9bd 82a4 bfbd 49fd fcbc f10c f4bb
00000020: f20e a3be aa78 963d 553e 5c3d ddc0 09bd
00000030: 6d9e 0abe 039d 883d 1a1e aeba d3fb 1abd
00000040: 74a4 7ebe 68b9 883d 216b f73e ef30 bb3e
00000050: 4734 a9bd c4a1 e3bd 90f5 953d 0bf6 f83c
00000060: 8458 1f3d 2c49 55be deff 333b 8d28 56be
00000070: d0a3 f33c 0b02 3d3e 96e9 9dbd 1869 653d
00000080: 5c4a 16bd 980c 61be d1a8 7fbc 9759 16bf
00000090: cfde 003f dae3 bf3e 9c47 0f3c 3f01 74bd
000000a0: 71d2 e9be a96e 1ebd a508 5b3d 7c74 ee3d
000000b0: 54e6 0dbe c3c2 92bc a0c4 1bbe 6ef6 a43d
000000c0: 0601 473d 3fb6 acbd 7298 93bc e1e1 433c
000000d0: bb91 81bd 050a 063e 6729 4dbe 966d 03bf
000000e0: a804 f53d 921e 85bd 4a58 22be fe89 363f
000000f0: 5ea3 34be ef5f 73bd c3bb 9fbd bb24 c1be
00000100: 5d8d 46bd 9b91 3ebd 53e6 b2bc a900 10bf
00000110: 3de9 e83e 089f 073f ede9 38bc 0e3c cfbb
00000120: dcd6 69be b417 efbd b84b f8bc 9a0e c33d
00000130: ab10 96bd 61f5 2c3d 30ab 52be b0ba 0d3e
00000140: 7d03 1f3e 55fe bbbc b7f8 4abe d9e0 71be
00000150: 4a0d a4bd 1e69 033e 4b90 683d a7d9 b2bd
00000160: 16a9 483d 6e35 273e 58f5 0dbe cf88 893f
00000170: 4a3b 80bd 496c a0bd a48d 273d ff2c 93be
00000180: ee21 3f3e 6754 bfbb b5b0 f23b dedd a93d
00000190: 7b9d 3abd eb96 8ebe a011 c5bc ac6e 703d
000001a0: 88b6 283b e729 b03d b75f 993d 4bbb bbbd
000001b0: 29a7 d3bd cfdc ff3b 2c40 e63c 974c 54be
000001c0: 502d 96be ce5c 6c3d ec20 013e 45e0 a43e
000001d0: f40b d6bc 2bd2 88bd 4353 6b3b 04ca a33b
000001e0: 71fb 8abd c608 1fbe 74bd 1d3d 3d66 1bbe
000001f0: 76e7 1b3c d3b9 0e3e a2cd 88bb c4be e43c
00000200: 1144 063f 1480 423c 6254 103e e5e3 3a3e
00000210: cf16 c3bd f885 2cbd d0c4 a0bd 9aa7 fa3c
00000220: 4ac2 2cbd f0cb 903c 5cd8 48bc e7e4 533e
00000230: 43fb 363d 219b cb3c ffcd 623e 516e 0abf
00000240: a60e 52bd 070b 9b3e 625e 2c3d 323f 983d
00000250: 6393 523d f67b 53bd 50c3 95bd 8a85 8e3b
00000260: 4bc8 3ebe cd5f 873d 588b e4bb 99e0 89be
00000270: bb21 8fbc 69a3 de3c dc18 82bb 80ec 063c
00000280: e067 ba3e 1d1f 453c ddbf b53d 4cb9 453e
00000290: 1820 27be f993 943d bcc3 64bc 5d3c 51bd
000002a0: 2187 263e c0ae e8bd bf73 d1bc e6ed cf3d
000002b0: 00d8 113d cd29 373d 8e8a 873e d941 b7be
000002c0: 7e90 24bd 4882 ed3e 1c53 f5bd 9ca8 8a3d
000002d0: 0ccf 8e3d 7e0d a7bd cd60 29bc ffcb 8c3c
000002e0: aa05 c6be d496 a23e 7213 403d 5f20 af3d
000002f0: 5a29 c23b cac3 8cbd a5a6 053d 4509 2ebb
00000300: 93b6 24bd 8dae cdbd 7fba 593c ed4d 29bf
00000310: c866 fc3e 1983 0f3f a667 99bd 05c3 e1bc
00000320: 7993 48be 62d6 85bd 5cb2 0ebd 8c6a 913d
00000330: be6c d5bd 59f3 0dbd 555a 90bd 5165 e63d
00000340: 46f1 773d b94d efbc 7872 b0bc f790 aebd
00000350: f0a4 a8bd 9971 e63d 1b12 4cbe 018b bebe
00000360: eb33 b03d 21cf 08bc 64e5 b6bd 763e 9b3f
00000370: 52e7 4dbe 4f81 2dbd 45cb 0bbe 1178 b2be
00000380: eaef 433c 4fb9 c33c 89df 463c 98bf 23be
00000390: 8efc f23b 4fb7 983e 1f49 8f3d bc60 4b3d
000003a0: c473 c83d 428c 96be 502b 35bc 0bf6 c63d
000003b0: 9a6d 623d a52d ad3d 3373 1f3e e7be 6dbc
000003c0: 3e0c 5d3e fe37 d93d c9da 29be 8bbf 90be
000003d0: 7403 22bd 14f5 11bd d726 313c 4329 133d
000003e0: 2b60 05be 77af 8b3e 6f8a 0b3d ff70 413e
000003f0: 8daa 8d3c a1a3 b0bd 190c be3d 5419 c73c

net.0.bias f4 [16]
0.2246011 0.2640601 0.21571024 0.23037577 0.19614157 0.16974156 0.22456852 0.23722893
0.26339036 0.18109116 0.16852494 0.17938045 0.18995884 0.23532744 0.15082468 0.20374316
00000000: d5fd 653e e332 873e 25e3 5c3e a0e7 6b3e
00000010: 56d9 483e bbd0 2d3e 4af5 653e 24ec 723e
00000020: 1adb 863e f66f 393e cd91 2c3e 82af 373e
00000030: 9284 423e adf9 703e c971 1a3e 0ca2 503e

net.3.weight f4 [3, 16]
-0.018784083 0.13457887 0.14964166 -0.052518062 -0.09388586 -0.08587661 0.17529833 -0.038611755
-0.031400803 0.097495615 -0.007019009 -0.056180287 -0.11076103 0.13290451 -0.09863842 -0.10515553
-0.010468995 0.13461366 0.132202 -0.043282162 -0.08447412 -0.07829657 0.17144302 -0.027246306
-0.019050602 0.08336481 -0.0033682317 -0.04673684 -0.09941349 0.12710926 -0.09522933 -0.09747046
0.08438034 0.016003335 -0.07290578 0.07438491 -0.006750237 -0.056335125 -0.017640214 -0.08155274
-0.106113225 0.105117515 0.10484697 -0.07648867 0.017355183 0.04170411 -0.01938239 0.04407312
00000000: 14e1 99bc 0bcf 093e aa3b 193e 2e1d 57bd
00000010: 3b47 c0bd 13e0 afbd 6881 333e 5c27 1ebd
00000020: 219e 00bd c8ab c73d b7ff e5bb 4d1d 66bd
00000030: aed6 e2bd 1f18 083e f102 cabd c85b d7bd
00000040: 2686 2bbc 2ad8 093e f65f 073e a348 31bd
00000050: c400 adbd f459 a0bd c28e 2f3e a533 dfbc
00000060: 0210 9cbc 2bbb aa3d 8dbd 5cbb 216f 3fbd
00000070: 4d99 cbbd ee28 023e 9807 c3bd 989e c7bd
00000080: 9acf ac3d 6d19 833c a04f 95bd 1e57 983d
00000090: 1831 ddbb a9bf 66bd 3682 90bc 1f05 a7bd
000000a0: e451 d9bd da47 d73d 02ba d63d 18a6 9cbd
000000b0: 752c 8e3c eed1 2a3d d1c7 9ebc 0486 343d

net.3.bias f4 [3]
0.33269638 0.34722182 0.43363044
00000000: 2e57 aa3e 0fc7 b13e cf04 de3e
