models/checkpoints/current_model.pth (torch, 178281 bytes, 36 tensors)

lstm.weight_ih_l0 f4 [128, 3]
000000 b4 36 9c 3f 98 04 b3 3f ef c0 82 3f 97 92 69 3e
       1.2204194 1.3985777 1.0215129 0.22809826
000010 de f7 2e 3f 74 86 01 3f 11 19 11 3f 3f e5 a0 3e
       0.68346965 0.50595784 0.56678873 0.314249
000020 38 d6 05 3f 89 65 1d 3f 3c 30 97 3e 80 b8 81 3e
       0.52279997 0.61483055 0.29528987 0.25336075
000030 40 61 19 3f 3d 03 02 3f f0 22 36 3e 26 94 86 3f
       0.59914017 0.5078619 0.17786765 1.0513961
000040 df 19 47 3e bf fa 4e 3e e4 1c ee bc 39 a1 f1 3e
       0.19443463 0.2021284 -0.02906651 0.47193316
000050 30 0e d6 3e 2c c6 b2 3e 8d 61 42 3e 7c dd d0 be
       0.418077 0.34916818 0.18982525 -0.4079398
000060 d3 e6 f2 3e 61 01 3a 3f 42 25 69 3f 49 42 62 3e
       0.4744173 0.72658354 0.91072476 0.22095598
000070 83 50 72 3e 26 54 05 3f 9e c9 44 3f 06 a2 d5 3e
       0.23663525 0.52081525 0.76870143 0.41725177
000080 4b 5e 20 3e 2e 2f 21 3f cc 34 15 3f dd 68 58 3f
       0.1566097 0.62962615 0.58283687 0.8453501
000090 41 a5 bb 3e 3b 8d f5 bb 1b ea 5b 3f 66 45 4f 3e
       0.36649516 -0.0074936426 0.8590409 0.20241317
0000a0 c2 68 0a 3f dd 67 d1 bc 78 1c c9 3e 31 56 21 3f
       0.540661 -0.025562221 0.39279532 0.6302214
0000b0 c5 4e 28 3f 9e de 95 3e 09 e0 78 3f 7d dc 13 3f
       0.6574519 0.29271406 0.9721685 0.57758313
0000c0 93 30 fc 3e 73 a0 35 3e 89 fb 2e 3f 92 0e 69 3f
       0.4925581 0.17736988 0.6835256 0.9103786
0000d0 ed f3 fa 3e 60 c5 61 3f 14 92 49 3f 6b 2f 0a 3f
       0.49014226 0.88191795 0.7873852 0.53978604
0000e0 1a 59 f0 3e 10 c8 2d 3f 3d cb ab 3e 6a 79 94 3e
       0.4694298 0.67883396 0.33553496 0.28998882
0000f0 9b 8f 06 3f f1 25 ec 3e af dd 35 3f 59 0a f4 3e
       0.52562875 0.46122697 0.7104139 0.47664145
000100 3f 92 c5 3e 72 58 02 3f 52 ef d2 3e 61 68 30 3f
       0.3858814 0.50916207 0.41198212 0.6890927
000110 49 30 30 be 41 81 87 3e cd d2 0e 3f c7 f6 2c 3f
       -0.1720592 0.264658 0.55790406 0.6756405
000120 16 8c 42 3f 5e 32 a6 3e 44 77 11 3f 67 2a 4b 3e
       0.75995004 0.32460302 0.5682261 0.19840394
000130 09 ae 60 be 53 31 cb be ab db 32 3d 75 78 a4 3e
       -0.21941389 -0.3968607 0.043666523 0.3212315
000140 35 cd dd 3e 5a 33 36 3e 2c 99 9d 3e ad db 53 3e
       0.43320623 0.17793027 0.30780923 0.20689268
000150 a8 34 2b 3f 45 1c bc 3e a6 ca cf 3d a5 e8 8f 3e
       0.6687722 0.36740318 0.10146074 0.2810718
000160 fb 94 08 3d ad 8f 9e 3d d7 5a ac 3e fa 14 8f 3e
       0.033345204 0.07742248 0.33663055 0.2794569
000170 c8 30 4c 3f 4a b7 f4 bc 7d 0d cb bd 51 f7 36 3f
       0.79761934 -0.029872555 -0.09914682 0.71471125
000180 c2 39 87 3e b6 86 c3 3e e5 e3 a3 3e b5 69 7b 3e
       0.26411253 0.38188714 0.32009807 0.24552043
000190 b2 a1 de 3e 47 e1 a3 3e 75 e8 f3 3d aa b4 80 bd
       0.4348274 0.3200781 0.11909572 -0.06284459
0001a0 83 1b 05 3e e7 28 11 3f ef df 1e 3e f0 d9 4d 3e
       0.12998776 0.5670304 0.15515111 0.20102668
0001b0 3b 3c 22 be 30 eb 2e be 62 e9 81 be 44 d1 7e 3e
       -0.15843289 -0.17081904 -0.2537337 0.24884516
0001c0 a8 99 16 be 21 d1 99 3e 87 5d df be b1 d7 22 3d
       -0.14707053 0.30042365 -0.43626043 0.03975648
0001d0 55 1f 18 3e 2c 7b f9 3e a3 54 49 3d 40 64 0e bf
       0.14855702 0.48726785 0.04915298 -0.5562172
0001e0 38 b0 b1 be 49 9c 7b 3e 40 d8 87 3e 0c d0 d7 bd
       -0.34704757 0.24571337 0.26532173 -0.10537729
0001f0 ec e6 1d be dd 44 81 3d 21 2f 81 3e 7e aa ce bd
       -0.15420121 0.06311963 0.2523127 -0.100911126
000200 63 5f af be ce 82 e8 3c c6 df 85 be 2d 7e 1b 3f
       -0.34252462 0.028382685 -0.26147288 0.60739404
000210 f2 c5 d6 bd 81 7c 8e bd f5 21 22 3f 14 82 88 be
       -0.10486974 -0.06957341 0.63333064 -0.26661742
000220 cd 4f dd 3b f3 6b 67 3d a4 0a 94 be 5c 88 28 be
       0.0067538978 0.056499433 -0.28914368 -0.16458267
000230 2b 4a 18 3e 3b ca 04 3d 57 5f 50 3e c4 ed fd bd
       0.14872043 0.032419425 0.2034887 -0.12398866
000240 f4 a1 7a 3d 77 29 cc 3d 31 21 fb 3e f8 ec 15 be
       0.061189607 0.09968846 0.4904876 -0.14641178
000250 dc 63 2d bc 36 e8 ee bd c8 89 dd 3d 3d 4e 83 3e
       -0.01058289 -0.116653845 0.10817295 0.2564563
000260 52 13 13 be 19 ce 56 3e 9c 14 ac 3e 81 35 51 3e
       -0.14362839 0.20977058 0.33609474 0.20430566
000270 25 ce 92 be 5e 92 8c be 0d 7d 22 be 36 04 91 be
       -0.286729 -0.2745542 -0.15868016 -0.28323525
000280 69 08 11 bc b7 3f 73 3e 6b 97 0d 3e 5c 95 35 3e
       -0.008852103 0.23754774 0.13827293 0.17732757
000290 48 39 e5 3c 62 c7 53 3e 27 ff 08 3f e9 13 08 3f
       0.027981415 0.20681527 0.5351433 0.5315538
0002a0 67 13 84 bd 19 86 d0 3d c3 57 03 3e 75 bf 03 3f
       -0.06449013 0.10181827 0.12826447 0.51464015
0002b0 7d 56 15 3e de ce 59 bf e1 cc f4 3d 85 d4 6b 3e
       0.14583774 -0.8508128 0.1195314 0.23030289
0002c0 43 47 06 3f 38 1d 5c 3e 7f 86 f8 3d 93 1c e5 bd
       0.52452487 0.21495521 0.12135028 -0.11187091
0002d0 5a f5 54 3e d3 39 4e 3e 2a 25 6a 3e 9c 16 9f bd
       0.20796719 0.20139246 0.2286574 -0.07767984
0002e0 b6 04 20 3d 6c 02 46 bd b5 a7 90 3e 34 06 40 be
       0.039066993 -0.048342153 0.2825295 -0.18752366
0002f0 16 59 20 3f 99 74 09 bf 8a 1b 2c bf 0a 27 7c 3e
       0.62635934 -0.5369354 -0.6722952 0.24624267
000300 2a d5 9f be dd c1 aa bf 31 7c bc 3d 43 b5 19 bf
       -0.3121732 -1.3340412 0.09203375 -0.6004221
000310 ca 62 0c bf 96 29 02 be f3 6d fb be 43 11 25 be
       -0.5483824 -0.12711176 -0.49107322 -0.16119866
000320 ac 85 0d bf db c6 9c 3e bd b2 c1 be 1e a3 5c be
       -0.5528209 0.30620465 -0.3783168 -0.215466
000330 14 17 21 3e 18 8a ea 3e b6 d1 5f bf 71 50 ba 3e
       0.1573146 0.45808482 -0.8742937 0.36389497
000340 57 6a a8 bd 41 49 14 3f 6a d9 36 bf 81 7c 0d 3d
       -0.08223408 0.57924277 -0.714255 0.034542564
000350 b3 2c cf 3e 79 4e f5 3e d5 d2 1d 3d e0 65 02 bf
       0.4046379 0.47911432 0.038531143 -0.509367
000360 3d ed 18 bf e0 a5 11 bf ce 56 0e 3e fb d2 05 3f
       -0.59736997 -0.5689373 0.13900301 0.52275056
000370 a1 69 d2 3e e6 f0 a9 3e 26 25 90 be 5e 02 db bd
       0.41096213 0.33191603 -0.28153342 -0.10693811
000380 2d 06 82 3f 68 0b 9d be dd 5b b2 3b df a6 83 3d
       1.0158135 -0.30672765 0.00544308 0.064283125
000390 28 a0 5a 3d 7f 16 b9 bb 37 18 6c be f9 71 47 3d
       0.053375393 -0.0056484337 -0.23056112 0.048692677
0003a0 5c 9d d4 bd e1 01 2d be ba 59 44 3e 68 0d 4f 3f
       -0.103815764 -0.16895248 0.19174853 0.8087983
0003b0 ee 40 00 3f 7e a5 f5 3e cc 0b 26 3f 6a 88 22 bd
       0.50099075 0.47977823 0.6486175 -0.039680876
0003c0 6e d8 ad be af 2d 8a 3e 05 75 ec 3e af d3 84 bd
       -0.33954185 0.2698798 0.4618303 -0.06485688
0003d0 ef 25 4d 3e 6b 48 8b bf 18 c1 04 bf b8 3f 7d 3e
       0.20034002 -1.0881475 -0.5185714 0.24731338
0003e0 86 4a 44 3f 00 1d 00 3f 63 b3 1f 3e f1 0d 4b be
       0.76676214 0.5004425 0.15595774 -0.19829537
0003f0 76 cf f9 3e 45 55 b7 3e e6 44 80 bf 67 47 8a be
       0.48791093 0.35807243 -1.0021026 -0.270076

lstm.weight_hh_l0 f4 [128, 32]
000000 37 f9 b0 bd db 28 47 be 61 22 04 bf cc a5 5e 3f
       -0.08641284 -0.19449179 -0.5161496 0.86971736
000010 e6 16 91 3e 1e 9c 9e be a9 02 42 3f 88 9a c1 be
       0.28337783 -0.30978483 0.7578531 -0.3781321
000020 23 6c 92 3e 63 7f 94 3d 66 e7 18 3f 23 cf 4a be
       0.28598127 0.072508596 0.59728086 -0.19805579
000030 55 cf 14 bf 90 cc 81 3f b5 6d d4 3e 53 52 2e 3f
       -0.58128864 1.0140553 0.4148995 0.68094367
000040 05 85 9a 3f 28 00 16 bf 0d c5 c8 be 4b 92 c7 3d
       1.2071844 -0.5859399 -0.39212838 0.097447
000050 8a 76 bc be b7 51 83 3e b3 fb 0b be 61 0a 8d 3e
       -0.36809188 0.2564828 -0.13670234 0.2754698
000060 fa c8 3b bf 84 8d 75 3f 4e 65 28 bd df 79 15 be
       -0.7335354 0.9591906 -0.041112237 -0.14597271
000070 1d ad 14 bf d2 f4 65 3f cb d1 cc 3d f0 f8 b7 3f
       -0.5807665 0.8982669 0.10000952 1.4372845
000080 10 dc 13 bd fe b8 b0 be e7 82 80 3d 91 e1 bc be
       -0.03609854 -0.34516138 0.06274968 -0.36890844
000090 03 a2 80 3e 54 ff 8a 3e 3a ca 3b 3f 3a 48 a9 bc
       0.25123605 0.27147925 0.7335545 -0.020664323
0000a0 47 d5 03 bf 75 90 4f 3e c1 7b 20 3e df 37 5f be
       -0.5149731 0.2026995 0.15672208 -0.21798657
0000b0 fd 31 30 be 75 5a ff 3d f9 3f eb 3e 5d b9 0e be
       -0.17206569 0.12468425 0.45947245 -0.13937898
0000c0 d8 32 f4 3e d1 1e e5 be ad 5c 20 bc 95 0d 8b 3e
       0.4769504 -0.44750074 -0.009787721 0.271588
0000d0 33 55 9e bd f9 30 3b bd a1 04 82 bd 4e 82 0d 3f
       -0.07731094 -0.045701 -0.06348539 0.55276954
0000e0 bc 2e 2f 3b 09 84 2c 3e 9e b6 02 3f a9 df 73 3e
       0.0026730737 0.16847242 0.510599 0.23815788
0000f0 f2 b1 c1 3e 49 81 41 3e 9f 64 e4 bd 08 1b 25 3f
       0.37831074 0.18896975 -0.111520045 0.6449437
000100 2f a3 58 bf c8 37 99 be 8a d1 0e bf f6 7d 20 3e
       -0.84624 -0.2992537 -0.5578848 0.1567305
000110 2e 17 d9 3e 6e 03 46 be 50 0b 89 be 59 93 c8 3e
       0.42400497 -0.19337246 -0.26766443 0.39174917
000120 db 4a 8b bd 64 7b d9 be 78 27 af 3c 42 f9 0a be
       -0.06801387 -0.42476952 0.021381125 -0.13571647
000130 21 90 3d bf b0 0d b0 3e fa 1c c5 3d e2 6e dd 3e
       -0.7404805 0.34385443 0.096246675 0.4324866
000140 61 cc 11 3f 18 7a 13 bf 1a 2a 9a be 40 91 a4 3c
       0.5695248 -0.57608175 -0.30110246 0.020088792
000150 a0 aa 03 3e b3 b0 c1 3b d0 b7 8e 3e 0c a7 67 bb
       0.12858057 0.0059109568 0.27874613 -0.003534737
000160 43 14 1f bf 27 ad 92 3e 13 9d a6 3e ba 35 1b bf
       -0.6214029 0.2864773 0.32541713 -0.60628855
000170 36 ba a3 bd 9b 0d 23 bd e8 79 c0 3e 63 fe fb 3e
       -0.07994501 -0.039807897 0.37593007 0.4921752
000180 d4 99 f8 be d4 2b b3 be a2 14 1a 3e 99 3d e4 3e
       -0.48554862 -0.34994376 0.15046933 0.44578245
000190 7b 3a 77 3e 55 27 04 3d 56 01 14 bf ac de 32 3f
       0.24143402 0.032264072 -0.5781454 0.6987102
0001a0 e1 24 5a bf 93 28 43 3f 7a a8 db 3e d9 cc 97 be
       -0.8521252 0.76233786 0.42901975 -0.29648474
0001b0 c8 b6 59 be 04 4f 2c 3e f6 f3 f6 3e da ee 00 3f
       -0.21261132 0.16827017 0.48233002 0.5036446
0001c0 7f dc 6c be a0 51 bf 3e e1 a3 c8 be 46 61 0e 3e
       -0.23130988 0.37366962 -0.3918753 0.13904294
0001d0 16 0a 85 3e 35 62 02 3f 2b ab 08 bd ac 6c a3 3d
       0.25984257 0.509311 -0.033366363 0.07979712
0001e0 d1 0a 53 bd 92 f0 12 3f 5b 3b 11 bc 41 9f 14 bf
       -0.051523987 0.5739833 -0.008864249 -0.580555
0001f0 2d fc 07 3e f4 e8 b1 3e 69 2f 1d bf b9 ce d6 3d
       0.13279791 0.34748042 -0.6140047 0.10488648
000200 41 df 8b be a2 4a 41 bf 53 76 29 bf d4 36 86 be
       -0.27318767 -0.75504506 -0.66196173 -0.26213706
000210 ed e5 40 be 77 0e 21 3d 5d 64 53 3f 3f 81 3b 3e
       -0.1883771 0.039320435 0.8257502 0.18311022
000220 15 aa 28 bf c6 ff 40 be 6b 53 0f 3e 25 90 95 3d
       -0.65884525 -0.1884757 0.13996665 0.07302884
000230 09 83 d1 be 11 cd d9 3e 85 cf cc 3e 88 92 5f 3e
       -0.40920284 0.42539266 0.40002075 0.21833241
000240 7a 77 17 3f 03 59 ae 3e 94 dc 45 bb c3 b7 f7 3d
       0.5916668 0.34052286 -0.003019129 0.12095597
000250 09 ef 2e bf ca 07 df 3e ba 8e 89 3e a8 2c 08 3f
       -0.6833349 0.4356063 0.26866704 0.5319314
000260 42 1f 50 3d a8 f4 96 3e a4 06 21 3e 3a 62 84 bd
       0.05081106 0.29483533 0.1572519 -0.06464048
000270 a5 c7 90 3e 31 dd 42 3f 14 e4 7d bd d1 2b 53 3f
       0.28277317 0.7611876 -0.06198509 0.82488734
000280 21 41 b0 be d7 39 c6 3d c5 cd 9e 3e 15 46 fc 3e
       -0.3442469 0.09679001 0.31016365 0.49272218
000290 0e 8a 24 3f 18 06 be be 4c 8a 53 3d 04 50 19 3f
       0.64273155 -0.37114024 0.051645562 0.5988772
0002a0 41 29 c9 be 4e 22 93 be 55 11 e7 3d ef 27 f2 be
       -0.39289287 -0.2873711 0.11282603 -0.47296092
0002b0 b7 bc 2f bb 90 4b c5 3e 6a 2a 06 bd 06 4f d0 3e
       -0.0026815364 0.38534212 -0.032755293 0.4068529
0002c0 1b 5f 4b be b0 83 06 3f 88 5c 99 be 75 d9 86 be
       -0.19860499 0.5254469 -0.29953408 -0.26337782
0002d0 86 21 7f 3e 60 4c 85 3d 6f 32 7c bd df a6 f6 be
       0.24915132 0.06508708 -0.061571535 -0.48174188
0002e0 fb 45 a6 be 06 36 93 3e 5a e2 9c be da 22 97 bf
       -0.32475266 0.28752154 -0.30641443 -1.1807511
0002f0 99 22 dc 3e b9 de 14 3f 60 89 3a 3e ba 94 7d 3e
       0.42995146 0.5815235 0.18216467 0.24763766
000300 c2 16 ae bc a2 24 a4 be 6e 24 ef be 10 a8 60 3e
       -0.021251086 -0.320592 -0.4670748 0.21939111
000310 95 84 1a 3e 5e c0 fc be 74 b6 55 3e d9 6a c3 be
       0.15089639 -0.49365515 0.20870382 -0.38167456
000320 a3 0f b9 be e7 4d b2 3e a8 ef ba 3e 3f 79 ec bd
       -0.36144742 0.3482506 0.36510968 -0.11546563
000330 ed 3d 90 bf 7e 96 4c 3f d0 64 8c 3f 1f 23 ce 3e
       -1.1268898 0.7991713 1.0968266 0.4026117
000340 ad d6 49 3f 2d dc 2e be da 15 2a 3e 93 f1 1f 3e
       0.78843194 -0.17076178 0.16609898 0.15619497
000350 02 10 d7 be 59 3f 82 3e 4c 07 32 3e 69 84 a1 3e
       -0.420044 0.25438955 0.17385596 0.31546333
000360 b6 df 00 bf 62 93 6a 3f 5f a3 e0 3c f0 3b 9c be
       -0.50341356 0.9163114 0.027421651 -0.3051448
000370 0f 2c 97 3e b0 dc be 3e 30 7e 64 3e 64 cf 5f 3f
       0.29525802 0.37277746 0.22313762 0.8742583
000380 8b 58 28 be 29 71 2e bf 11 37 36 be 5e 02 e0 3e
       -0.16440026 -0.6814142 -0.17794444 0.43751806
000390 00 21 c9 3e a2 70 af be e1 df 12 3f 6b 0e 12 3f
       0.3928299 -0.3426562 0.5737286 0.5705325
0003a0 80 c6 23 bf 4e f6 12 3f 8f 1c 0a 3f 9e 85 cf be
       -0.6397476 0.5740708 0.53949827 -0.4053163
0003b0 04 bd 23 bf 78 42 54 3e 4d bf be 3e 87 54 31 3f
       -0.6396029 0.20728481 0.37255326 0.69269603
0003c0 c5 c1 7d 3d 10 dd de 3e da 56 5b 3e 5b 6f b2 3b
       0.06195237 0.43528032 0.2141985 0.0054454035
0003d0 ce 8e a3 3e f1 ec 2b 3e 87 46 7a 3e 26 d3 b6 3e
       0.3194489 0.16789605 0.24440967 0.35707968
0003e0 cf a4 fe 3d d6 43 bc 3f 59 d6 26 3f 24 a1 09 bf
       0.124337785 1.4708202 0.6517082 -0.53761506
0003f0 77 4c 2d 3f 7b 1f 0e be ed 1d 2c bc 53 89 94 3e
       0.676948 -0.13879196 -0.010505182 0.2901102

lstm.bias_ih_l0 f4 [128]
000000 c2 ac 73 3f a0 7b a9 3e c8 85 dc 3e e6 5a bb 3e
       0.9518548 0.3310213 0.43070817 0.36592788
000010 18 22 37 3f d9 c8 cb 3e 6c c5 9e 3e 4a f5 cd 3e
       0.715364 0.39801672 0.31009996 0.40226203
000020 bb 34 04 3f c8 5f 0a 3f e9 76 03 3f 3b 1f ec 3e
       0.5164296 0.540524 0.5135332 0.46117577
000030 76 50 8b 3e 7b cd 9a 3e e7 89 04 3f bd 58 17 3f
       0.27209824 0.30234894 0.5177292 0.5911978
000040 f1 d5 ad 3e b8 a4 2b 3f f0 99 ba 3e 88 81 e8 3d
       0.33952287 0.67048216 0.3644557 0.11352831
000050 c1 b5 25 3f ac 86 a8 3e b6 63 f7 3e 7b b4 ed 3e
       0.6473046 0.32915246 0.4831826 0.46426758
000060 09 27 29 3e 36 f7 ca 3e 99 96 ca 3e fb 5c 32 3f
       0.16518797 0.39641732 0.39568022 0.69673127
000070 0c 89 1f 3f 5a ca 02 3f cc 8c 01 3f c3 91 43 3f
       0.6231849 0.51090014 0.50605464 0.7639429
000080 03 b8 24 be bf 8f 3e 3d 7a 01 87 be 01 53 65 3e
       -0.1608582 0.046523806 -0.26368314 0.22394945
000090 33 f7 1b bd 3c c9 8b bd 06 8d 98 3e fb 7d 43 3e
       -0.038077544 -0.06825492 0.29795092 0.19091026
0000a0 91 ac 58 bd fb 80 11 be a8 73 65 be d2 13 93 bd
       -0.052898947 -0.14209358 -0.224074 -0.07181515
0000b0 54 42 b0 bd 8b 74 ef bc d1 fd df bd 03 aa ad bd
       -0.08606401 -0.029230377 -0.109370835 -0.08479693
0000c0 30 3b 53 3e b3 31 7b be 09 be 95 3d 61 cc 8e bc
       0.20628047 -0.24530677 0.07311637 -0.01743144
0000d0 8e 48 27 3e 5e a1 82 bc c9 3c 41 be 13 f5 d2 3e
       0.16336271 -0.015946086 -0.18870844 0.41202602
0000e0 12 51 40 be 05 46 cc 3e e1 ed 0d 3f e8 5e 80 3e
       -0.18780926 0.3989717 0.554411 0.25072408
0000f0 e2 20 b2 3e 69 bb 9d 3d b0 de 02 3d 9b 53 f7 3b
       0.34790713 0.07701761 0.031950653 0.0075478083
000100 e1 7a 0f 3e d7 fc a2 3e e7 dd b2 3e 88 56 b9 3d
       0.14011718 0.31833526 0.34934923 0.09049708
000110 3c cf d8 3d a7 ba fc 3c 04 7a d8 3d f8 e4 fe bd
       0.10586402 0.030850722 0.10570148 -0.12446016
000120 eb 6e 95 3e d7 d7 88 be 0f ed 1b 3e 6a 22 b1 3d
       0.29186186 -0.26727173 0.1522715 0.08649142
000130 4a 74 2c 3d f3 0f 05 3e 1e c4 2e be 50 c8 12 be
       0.04210309 0.12994365 -0.17067 -0.14334226
000140 94 61 b6 3b 12 59 d1 bc 99 15 35 be e4 ca 2a be
       0.0055658314 -0.025555167 -0.1768402 -0.16678959
000150 86 91 33 3e 12 b8 50 3e 30 d9 07 be 83 bd bf 3d
       0.17535982 0.20382717 -0.13266444 0.09362318
000160 dd c9 51 3e a9 74 68 3d c6 02 a7 bd 32 c9 88 be
       0.20487161 0.05675188 -0.08154826 -0.26716
000170 ac b4 c8 bd 4c 13 28 3e 98 ac 75 3e ea 29 00 3f
       -0.098000854 0.16413611 0.2399162 0.50063956
000180 b2 6b 3d 3f c4 c1 97 3e 7a e6 9b 3e 19 58 cb bd
       0.73992455 0.2964002 0.30449277 -0.09928913
000190 90 b7 fe 3e 44 dc 34 3e 7a bc a5 3e 2a bf ef 3e
       0.49749422 0.1766215 0.3237036 0.46825534
0001a0 7d 5c ac 3e df 0b 8f 3e ad c0 be 3e 56 6f 03 3f
       0.33664313 0.27938744 0.37256375 0.5134176
0001b0 c8 74 63 3e f0 38 6d 3d 87 ac 90 3e bc a3 5b 3e
       0.22212517 0.057915628 0.28256628 0.21449178
0001c0 f9 8a d0 3e 18 d5 3f 3f 31 e5 da 3e c7 9f ab 3e
       0.40731028 0.7493453 0.42752984 0.33520338
0001d0 76 c4 63 3f 13 dd 66 3d 18 75 05 3f 98 a8 e0 3e
       0.8897165 0.056363177 0.52131796 0.43878627
0001e0 e7 b5 c2 3e c5 96 ef 3e 03 f1 1d 3f 74 0b f3 3e
       0.38029405 0.46794716 0.6169588 0.47469676
0001f0 b1 4b 27 3f 87 c8 3b 3e 26 8b cc 3e c0 1b 9a 3e
       0.6534987 0.18338214 0.39949912 0.30099297

lstm.bias_hh_l0 f4 [128]
000000 b6 51 97 3f e9 b8 dd 3e 89 ab bd 3e ec fa 83 3e
       1.1821811 0.43305138 0.37044933 0.25777376
000010 e2 d6 08 3f f0 96 f2 3e fd 05 d6 3e ea dd 9a 3e
       0.53452885 0.4738078 0.41801444 0.30247432
000020 4b f6 22 3f e2 8c e8 3e 0e 05 f0 3e 72 e0 2f 3f
       0.63657063 0.45419985 0.46878856 0.6870185
000030 29 a7 b7 3e 74 9a 25 3e a4 d1 19 3f c9 a5 25 3f
       0.3586972 0.161722 0.6008551 0.64706093
000040 f0 5f 05 3f e1 16 e6 3e 4b 73 f5 3e e1 f0 87 3e
       0.52099514 0.4493933 0.47939524 0.26550964
000050 3e ac 56 3f ea 84 c2 3e 75 15 1c 3f 29 c7 c7 3e
       0.8385657 0.3799203 0.6097024 0.39019135
000060 11 d5 d1 3e e6 83 0b 3f 63 c2 2a 3f da 6a 1d 3f
       0.4098287 0.54498136 0.6670286 0.6149117
000070 70 80 ae 3e 67 52 d8 3e e6 b1 cd 3e 1b 5b 45 3f
       0.34082365 0.42250368 0.40174788 0.7709214
000080 57 ce 92 be 5d ca a3 bc 97 63 f7 bd b7 c2 ce 3e
       -0.2867305 -0.019993955 -0.12079542 0.4038293
000090 20 5d 3b be e8 4a 58 3e fc 99 a2 3e 7b 05 94 3e
       -0.18297243 0.21122324 0.31758106 0.2891043
0000a0 23 f4 ca bd fd ba 9f be 6f e8 b6 be 7c ab b0 3b
       -0.09909847 -0.31197348 -0.35724208 0.0053915363
0000b0 9d 32 99 3d 4e e4 46 be de c5 76 be df 64 02 be
       0.07480357 -0.19423029 -0.24098918 -0.12733792
0000c0 84 e6 90 3e 81 49 f6 bd e1 70 1a bd 2e 2e 56 bd
       0.2830087 -0.120257385 -0.037705306 -0.052290134
0000d0 13 3e 60 3d 50 04 36 be c7 83 97 bd 53 bf 80 3e
       0.0547467 -0.17775083 -0.073981814 0.2514597
0000e0 cf 7e e5 bd 7c 66 b9 3e ed 2a 22 3f 63 62 1f 3e
       -0.112058274 0.36211002 0.6334675 0.15564875
0000f0 91 1d 92 3e 93 2b 7a 3e af b2 2b be 4a 54 a4 3e
       0.28538182 0.24430685 -0.16767381 0.32095557
000100 c6 54 d9 3e b7 a6 8b 3e 84 01 42 3e 3e fb 09 be
       0.4244749 0.2727563 0.1894589 -0.13474748
000110 f8 f4 d7 3d 00 c2 46 be 8b da f1 3d 40 73 36 3e
       0.10544771 -0.19409943 0.11809262 0.17817402
000120 04 1f 84 3e 4b 63 ad be dc 01 24 3e 50 39 91 bd
       0.25804913 -0.33864817 0.16016334 -0.070910096
000130 7f 6a 06 3e 10 a7 03 3e 00 9e e7 be 8f d4 ec be
       0.13126563 0.12856698 -0.45237732 -0.4625592
000140 16 84 44 3e 21 35 f3 3d 8a e4 8f ba 37 b8 54 be
       0.19191012 0.11875368 -0.0010978144 -0.20773397
000150 b8 9e 16 3e 5d 26 81 3d 4c 8d 1f be d5 dd 61 bc
       0.14708984 0.06306145 -0.15581244 -0.013785799
000160 7a 03 7f 3d 6f 97 2c 3e b5 ab a6 3d 72 ca 53 bd
       0.062259175 0.16854642 0.08138219 -0.05170674
000170 4f bf ed bd 1b 19 9a 3e ff 36 97 3e 5e c3 b8 3e
       -0.11608755 0.3009728 0.29534146 0.36086553
000180 5e 54 68 3f 36 2f b9 3e 81 00 0c 3f d2 53 d8 3c
       0.90753734 0.36168832 0.5468827 0.026407156
000190 37 72 b4 3e 15 39 55 3e bd 7f 0d 3f 26 a1 b6 3e
       0.3524339 0.20822556 0.5527304 0.35669822
0001a0 88 59 ab 3e 4b 80 0b 3f ac a7 a7 3e c4 3b ca 3e
       0.33466744 0.54492635 0.3274511 0.39498723
0001b0 3b 86 22 3e af fd 63 3c 3e 3b cf 3e 84 46 d8 3e
       0.15871517 0.013915463 0.40474886 0.422413
0001c0 a8 06 62 3e 2d 68 fe 3e 8f d2 8f 3e be 4e e6 3d
       0.22072852 0.49688855 0.2809033 0.11245488
0001d0 30 51 6e 3f da a7 9e 3e 3a 8c 10 3f 89 bd f0 3e
       0.9309263 0.30987436 0.5646397 0.47019604
0001e0 1d 1d ea 3d e9 e2 f7 3e 2b bf 14 3f f3 1e 0a 3f
       0.11431334 0.48415306 0.581042 0.53953475
0001f0 bf 96 1f 3f ba ee 8d 3d c4 4b fc 3e db 4c f9 3e
       0.62339395 0.06930299 0.49276555 0.4869145

lstm.weight_ih_l1 f4 [128, 32]
000000 e0 21 27 bf cd fb fa bd 20 0d da bd 33 fc 8a 3c
       -0.65286064 -0.122550584 -0.10647035 0.016965961
000010 d0 34 66 be 9d 18 6e be 15 3d 6d be 6b 02 27 bd
       -0.22481084 -0.23251577 -0.23167832 -0.04077379
000020 ca 87 a5 3d 79 97 3c 3e b2 85 2c 3c dd 8c 85 3e
       0.0808254 0.18417157 0.010529922 0.26084033
000030 08 0e 3c bf 16 24 10 3d 07 05 09 3f 4c 30 9c 3e
       -0.7345891 0.035190664 0.53523296 0.30505598
000040 a8 34 1e 3e 09 17 20 be 70 a6 38 be cc 55 b1 3c
       0.15449774 -0.15633787 -0.18032241 0.021647356
000050 24 9d 46 bd 9c a0 77 be c9 1e 6d bd 72 06 cf be
       -0.048489705 -0.24182361 -0.057890687 -0.40434605
000060 51 19 13 3e 1f 87 4a bd d9 7e 7c be b4 08 8e bd
       0.14365126 -0.049445268 -0.24657764 -0.06935254
000070 bf 05 9c be 69 4c 18 3f 67 2b 2c bf 1a 4e 55 3e
       -0.30473134 0.5949159 -0.67253727 0.20830575
000080 f2 48 35 be c1 f2 d4 bc 90 ed 0b be 9c fc 4b 3c
       -0.17703608 -0.02599466 -0.13664842 0.0124503635
000090 70 23 53 bf b2 d5 cd bc 63 e2 9d 3e 18 60 11 bf
       -0.8247595 -0.025126312 0.30836782 -0.5678725
0000a0 33 de e1 3e 36 54 01 bf ec f1 8a bc 30 87 24 bf
       0.44114837 -0.5051912 -0.01696106 -0.6426878
0000b0 4b 69 ad bc ee 73 43 be b4 3d 3c bf fa 3f 06 3e
       -0.021168372 -0.19087192 -0.7353165 0.13110343
0000c0 e1 60 be 3e ae 50 c9 be 16 0a 27 3f 2d ad dc be
       0.37183288 -0.39319366 0.65249765 -0.43100873
0000d0 56 e9 1a be 98 33 0c 3f d6 32 00 bf 84 63 e7 3e
       -0.15128073 0.54766226 -0.5007757 0.45193112
0000e0 ff 1e e8 be 13 f8 a7 be 8b c2 c4 3e 54 18 d1 bd
       -0.45336148 -0.32806453 0.38429675 -0.10209718
0000f0 4a c5 40 3e f4 db 10 3f dc 80 df 3e 30 73 61 3e
       0.1882526 0.5658562 0.43653 0.22016597
000100 63 e5 2d bf fe 90 34 bf 49 33 d5 be 0e f3 69 3e
       -0.6792814 -0.7053374 -0.4164069 0.22846624
000110 1b ef b5 3d 34 01 03 3e b1 9e d2 3d da b1 7b 3e
       0.088834964 0.12793428 0.10284174 0.24579564
000120 f1 27 fe bb bb 2d 28 3f 79 eb 4c 3f 23 34 38 3f
       -0.007756226 0.6569478 0.800468 0.71954554
000130 78 bb 45 3e b9 8e 05 bd c6 3f 57 3e 37 f5 9c 3e
       0.19309795 -0.032606814 0.21020421 0.30655834
000140 45 ee 5f 3f 9e ae bb be 03 d4 d2 3e 4b 75 8b be
       0.87472945 -0.3665666 0.41177377 -0.27237925
000150 5a 6e f7 be a5 3f ee 3d 40 72 a1 be 5d c3 97 3e
       -0.4832638 0.11633233 -0.31532478 0.29641238
000160 c6 06 d8 be 62 d5 c9 3e 15 14 c6 3e 96 80 26 bf
       -0.42192668 0.3942061 0.38687196 -0.65039957
000170 22 18 2c 3f e3 ee 30 3d 63 61 d5 bd 29 5b 97 bd
       0.67224324 0.04319657 -0.10418966 -0.07390434
000180 3e 34 28 3d 8a 27 cc 3d 20 2f 17 3f a6 fa d2 3d
       0.041065447 0.09968479 0.5905628 0.10301714
000190 60 ae 2c 3e 62 cf 7c bf 14 54 9d 3e 60 ae 92 3e
       0.16863394 -0.9875394 0.3072821 0.28648663
0001a0 ac 16 2d be 50 c5 9e 3e 2e 54 1e 3e 6f 74 cd bd
       -0.1690318 0.31009912 0.154618 -0.100319736
0001b0 0d cf 7b be 56 e8 19 3f ae 2d f9 3e 1f 65 ae 3e
       -0.24590702 0.6012014 0.48667663 0.34061524
0001c0 56 02 c3 bd 11 d6 7f bd 4d f2 26 3f cc 49 cb be
       -0.0952193 -0.06246001 0.6521347 -0.3970474
0001d0 b9 ee 1c 3f 0b 6e 93 be 13 50 6e bd b5 62 22 be
       0.6130176 -0.28794894 -0.058181833 -0.15857966
0001e0 22 d6 87 be 35 89 90 3e fe f9 13 bd 15 77 67 bf
       -0.26530558 0.2822968 -0.036127083 -0.9041608
0001f0 43 33 1d bd 3d 79 bd 3e 45 4b ab 3e b3 90 d2 bc
       -0.038378965 0.3700656 0.33455864 -0.025703764
000200 70 a4 12 3f 50 a6 67 3e 42 07 fc 3e 18 26 02 be
       0.5728216 0.22622037 0.49224287 -0.12709844
000210 cd be e9 bd 50 07 f8 be da dc 78 3f c0 c9 8d be
       -0.114133455 -0.4844308 0.9721199 -0.27692986
000220 d3 19 b2 be d1 41 9e bf 5a 4d ee bd b9 35 0d bf
       -0.34785327 -1.2363836 -0.116358474 -0.551601
000230 51 4f 56 bf 2a 52 09 3e 6e d2 a2 be f6 21 c5 bd
       -0.8371478 0.1341025 -0.3180117 -0.09625618
000240 d1 4d a4 3e 56 ef 64 3e 68 28 9e be e6 39 79 be
       0.3209062 0.22356924 -0.30890203 -0.24338493
000250 b1 35 69 3d ff ae 89 3e 5b 62 35 3e 25 f9 d9 3d
       0.05693597 0.26891324 0.17713301 0.10643224
000260 68 b2 01 be a2 8f 86 3e ae fd e6 3d 21 33 43 bf
       -0.12665713 0.26281458 0.11278854 -0.7624989
000270 15 b4 e3 be fb da ee 3e b4 cd 1c 3f 11 9f ba 3e
       -0.4447333 0.46651444 0.6125138 0.36449483
000280 25 1d 76 be 74 b3 0a bd 05 81 c2 3e 37 e4 27 3d
       -0.24034555 -0.033862546 0.3798906 0.040989127
000290 17 40 97 3e f2 82 16 bf 9f 51 ec 3e cd f0 5e 3e
       0.29541084 -0.58793557 0.46156022 0.21771546
0002a0 85 27 7d bd ed fa 90 bf 57 88 d8 b8 d5 39 06 be
       -0.061805267 -1.1326576 -0.00010325078 -0.13107999
0002b0 4a 7c 4e bf d0 57 9c 3e 76 66 0f bf d2 6a 6a 3e
       -0.806584 0.30535746 -0.5601572 0.22892311
0002c0 16 58 37 3f 8e c3 c9 3e 09 6c 04 3e b5 8a 1c bf
       0.71618783 0.3940701 0.12931837 -0.6114915
0002d0 5f 5a 10 3f 02 4b 35 3f 50 d2 1a 3f 37 e2 fd be
       0.56387895 0.7081758 0.6047716 -0.4958665
0002e0 b2 cd ce bd 20 cb b6 3d 35 5d 32 be 96 be 43 bf
       -0.10097827 0.08925462 -0.17418368 -0.76462686
0002f0 c8 c4 1f 3e 20 d8 83 3e 8a c4 12 3f 5c ca 8f 3e
       0.1560241 0.25750828 0.57331145 0.28084075
000300 b0 5b 02 be 58 86 cf 3e a3 a1 b9 3e 39 72 8a be
       -0.12730289 0.40532184 0.36256132 -0.2704027
000310 ec dd fd 3e c0 c1 1c bf 76 6b 5e be 8b 86 02 3f
       0.49583375 -0.6123314 -0.2172068 0.50986546
000320 6e 6b 5b be 9a 71 44 bf 12 6d 28 bf 86 e6 5c bf
       -0.214277 -0.7673584 -0.6579143 -0.8628925
000330 45 9e 34 be 10 92 4a 3e 00 85 09 bf 11 42 98 be
       -0.176385 0.19782281 -0.53718567 -0.29737905
000340 90 32 c2 bd e0 43 33 3f 0f 56 01 bf 00 26 a3 be
       -0.094823 0.70025444 -0.5052194 -0.3186493
000350 83 02 85 3f 2e 72 e6 3d 17 52 08 3e 1e 4b 1c be
       1.0391392 0.11252247 0.13312565 -0.1526303
000360 6b 40 0d 3e 82 32 8c 3e f3 1c cf be 7d d1 3b bf
       0.13794105 0.27382284 -0.40451774 -0.7336653
000370 bd 48 e3 3d c2 e3 f4 bd 81 78 27 3f a9 87 a3 bd
       0.11097858 -0.11957504 0.6541825 -0.079848595
000380 d6 65 77 bd 15 18 c8 be 64 15 bc bc 88 47 86 3e
       -0.060399853 -0.39080873 -0.022959419 0.2622645
000390 86 7b 72 bd 79 8e 2e bd 4b 58 47 3f e1 4e 80 bd
       -0.059199832 -0.04261634 0.778691 -0.06265045
0003a0 67 49 9a be 3c 91 4e be a8 5b 4e 3f d3 4d c7 be
       -0.30134127 -0.2017259 0.80608606 -0.38926563
0003b0 b0 20 95 be bc 71 cd bd 71 24 3d 3d 62 a7 1e 3f
       -0.291265 -0.10031459 0.04617733 0.61974156
0003c0 00 29 a7 3e 9f 99 ac 3e c7 9e 85 bd a7 0e 83 be
       0.32648468 0.33710954 -0.06524425 -0.25597116
0003d0 b9 60 63 be c2 79 91 3e b2 9b 86 3c 8f 36 69 3c
       -0.22204866 0.28413206 0.016431663 0.014234199
0003e0 cd 1f 1d bf b7 a0 85 3d eb 25 94 3e cd fc 8b 3b
       -0.6137665 0.065247945 0.2893518 0.0042720796
0003f0 2a 4e 76 bd 3e 18 1a 3f ec f6 03 be be 7d e7 3e
       -0.060133137 0.6019324 -0.12887162 0.4521312

lstm.weight_hh_l1 f4 [128, 32]
000000 15 6b cf 3c 8b 19 29 3d c4 69 c9 3c b6 fa ce be
       0.025319615 0.041284125 0.024586566 -0.40425652
000010 94 44 74 3d 15 df d5 be 01 eb 90 3c 66 b4 02 3f
       0.059635714 -0.4177176 0.017690184 0.51056516
000020 b4 39 cd 3e dc 90 81 be ee 45 d1 be ae 8f ba 3e
       0.40083086 -0.2530583 -0.40873665 0.36437744
000030 2f be 21 be 9b 9d da be 38 ba 56 3d f0 e6 43 be
       -0.15795206 -0.42698368 0.052423686 -0.19131064
000040 51 2e 94 be 52 0c 51 bf cc da e2 3c cf 52 a1 bc
       -0.28941587 -0.81659424 0.027692221 -0.019692807
000050 16 58 8c be 27 02 6f 3e 2e f3 23 be 51 6c 2f 3e
       -0.27410954 0.23340665 -0.16010734 0.17131163
000060 9d 1d 94 3e 3b 6e 2e bd 72 26 d7 3e a4 2c 1e be
       0.28928843 -0.042585593 0.4202152 -0.15446717
000070 4e df 27 3f e3 ff ae 3e 44 33 18 3f 0a 73 de bd
       0.6557511 0.341796 0.59453225 -0.10861786
000080 2d de 0a 3e 03 e8 73 3e c9 bf 1f 3f ba cf b9 be
       0.13561316 0.23818974 0.62402016 -0.36291295
000090 58 1d 9d 3e 46 8d e4 be 69 44 1e bf 35 7d 0c 3f
       0.3068645 -0.44639033 -0.61823136 0.5487855
0000a0 6e d2 bc be a1 8a c8 3e 17 f6 7a 3d e6 d2 17 bf
       -0.36879295 0.39168265 0.061269846 -0.5930618
0000b0 81 28 90 3f ba e2 6a bd 73 27 47 3e 59 be 75 be
       1.1262361 -0.05734513 0.19448642 -0.23998393
0000c0 6f 9c 0d be 06 d3 dd bd 61 ec 80 3e b6 48 31 3f
       -0.13829206 -0.10831265 0.25180343 0.69251573
0000d0 78 57 45 3f 9c 24 6b bf 4e 72 88 bf 2b 9c 07 3f
       0.7708659 -0.91852736 -1.0659883 0.5297267
0000e0 64 74 59 be 18 9e 6d 3e d4 b3 3e 3f 7f 94 1e be
       -0.21235806 0.23204839 0.74493146 -0.15486334
0000f0 34 82 e2 be d5 b1 89 3e 6e 76 70 bf 22 f4 3f 3f
       -0.44239962 0.26893488 -0.9393071 0.7498189
000100 23 90 bf be 41 88 a0 3c 20 6e b7 be 08 37 47 3e
       -0.37414655 0.01959622 -0.35826206 0.19454587
000110 95 69 f9 be 9d 58 c5 bd fa 3d b3 be 42 63 02 3f
       -0.48713365 -0.09636042 -0.35008222 0.50932705
000120 93 30 e8 be 37 1a c8 3e 40 43 4c 3e 35 4f c7 be
       -0.4534956 0.390825 0.19947529 -0.38927618
000130 be ae 36 3e 8a a9 e3 bd 7f c9 74 be da 98 ae 3e
       0.17840096 -0.111163214 -0.2390499 0.3410099
000140 9a 4f 00 3f ea 5f 85 be 55 e1 a9 be 89 10 c8 be
       0.5012146 -0.2604974 -0.33179727 -0.39075115
000150 4f 32 77 be 97 d7 e2 3d 49 c6 e6 3e 43 0d b8 be
       -0.24140285 0.11076277 0.45073155 -0.35947618
000160 da ed d3 3e d0 b9 76 3e 03 c1 03 3f 65 3f 10 3f
       0.41392404 0.2409432 0.5146639 0.5634673
000170 6a f9 21 bf 67 84 b9 be c4 30 a8 be 41 0f 18 be
       -0.632712 -0.36233827 -0.32849705 -0.14849569
000180 af a4 c8 bc ce 4b da 3e 38 0c 82 3d 4c 4c cc 3d
       -0.02449259 0.4263596 0.06349987 0.0997549
000190 23 cc c0 be fc d3 e1 3d 84 fa d8 be fd b6 da 3e
       -0.37655744 0.11026761 -0.42378628 0.42717734
0001a0 c3 5b 8d be 7f 27 0a be 0e 7e dc 3d 22 df 28 3e
       -0.2760907 -0.13491629 0.107662305 0.16491368
0001b0 56 5d 1d 3f cd ab a7 3e 19 99 d5 bd 21 30 ea 3e
       0.61470544 0.3274826 -0.10429592 0.45739844
0001c0 4f ad 3d 3e 0c fe 8d bd a6 33 3b be ec aa 8d 3d
       0.18523143 -0.06933221 -0.18281421 0.069173664
0001d0 1f 3d dd be 21 96 50 3e 87 c5 68 3c d6 cc c4 3e
       -0.43210694 0.2036977 0.01420725 0.38437527
0001e0 14 23 d5 bd 97 88 2e bd c2 99 46 3e 71 54 83 be
       -0.10407081 -0.04261073 0.19394591 -0.2565036
0001f0 37 76 83 3d cc 64 14 bc c8 26 0a 3f 12 8a 9e 3e
       0.06419032 -0.009057235 0.53965425 0.30964714
000200 26 73 ac 3e 30 cd 07 3f e7 2b 8b be 3e ff 95 bd
       0.336816 0.53047466 -0.27181932 -0.07324074
000210 f5 ce 75 be cd ce e4 be a2 71 eb be 89 9a 7e 3e
       -0.24004729 -0.44689026 -0.45985132 0.24863638
000220 a6 be 95 bd 9e a0 20 3e bd 80 d9 bd 80 00 13 bf
       -0.07311754 0.1568627 -0.10620258 -0.5742264
000230 47 bb 03 3f d3 d2 89 bd a1 a0 03 3e 0b d5 2c bd
       0.5145764 -0.06729665 0.12854244 -0.04219536
000240 27 25 f4 be 80 7c c6 bd 0f 51 06 bd ca 41 cb 3e
       -0.47684595 -0.09691715 -0.032792147 0.3969863
000250 d1 d2 ce 3d b0 34 91 bd 5f 40 3e 3e 16 4e e8 3e
       0.10098804 -0.070901275 0.18579243 0.45372075
000260 25 6d 8d be fb dc c6 3e e9 ee a0 3e 74 9d 67 3e
       -0.27622333 0.3884047 0.31432274 0.22618657
000270 9d 23 c6 bf 86 51 96 3d 59 72 11 bd 89 05 b0 bc
       -1.5479618 0.07339768 -0.03550944 -0.021487014
000280 36 4f 6a be 13 98 46 3f 6c ce 9c be 8e 7f cd 3e
       -0.22881779 0.77575797 -0.30626237 0.4013638
000290 92 52 01 3e c9 ad aa 3d 4a ea 80 bf ee 24 83 bd
       0.12629154 0.08333928 -1.0071499 -0.06403528
0002a0 32 c3 10 bf 3c 0e 24 bc ad e0 28 bf b7 70 f7 3c
       -0.56547844 -0.010013159 -0.6596783 0.030205114
0002b0 ba 43 6c 3f 9f e7 d1 3e 94 59 d0 3e 7a 57 e6 3d
       0.9229084 0.40997025 0.40693343 0.112471536
0002c0 19 f0 42 3f 65 d1 08 bf 5d 37 37 be 85 0c 9c bf
       0.7614761 -0.5344451 -0.17892213 -1.2191321
0002d0 dc 56 17 bd 70 7f ac 3d 70 3a 2f be 11 96 33 3f
       -0.03694807 0.08422744 -0.17112136 0.7015086
0002e0 cc 79 8e 3e b9 56 5c 3f d2 f8 57 3e e3 52 99 3e
       0.278273 0.8606983 0.21091011 0.2994605
0002f0 dd 06 dd bf cd df 65 be 4e 07 5c be 06 3a a0 3d
       -1.726772 -0.22448654 -0.21487162 0.07823567
000300 66 a0 50 be 78 59 65 be 3f d6 b0 be 07 fd 04 3f
       -0.20373687 -0.22397411 -0.34538457 0.5194859
000310 28 bf 30 bf 3a 25 1d bf 2d c0 52 bd db 02 75 3e
       -0.6904168 -0.6138493 -0.051452804 0.2392687
000320 8d 49 98 bf e0 2f 79 bd 6b 1e 32 be 57 08 54 bf
       -1.1897446 -0.060836673 -0.17394416 -0.82825226
000330 19 f9 9f 3e f6 3f 28 3f 51 6e f0 be c4 0b 14 3e
       0.31244734 0.65722597 -0.46959165 0.14457613
000340 00 fb 34 bf d3 c0 d3 be fe 0d 9a 3f a9 b8 5a 3e
       -0.70695496 -0.4135805 1.203552 0.21359505
000350 34 9b 08 be b9 6a 8b be 6a 36 96 3e a6 91 07 3f
       -0.13340455 -0.2722986 0.2933839 0.52956617
000360 0c 6c 0c 3f 2b bd 7f 3e c1 4a eb 3e 83 36 f4 3d
       0.54852366 0.24974506 0.4595547 0.1192446
000370 da 01 03 bf b8 41 d4 3e 6b 7f 84 bf 38 a2 56 3f
       -0.511747 0.4145639 -1.0351385 0.83841276
000380 7e ae 63 be c5 59 95 3f 4f d5 9f be e9 2f 08 3e
       -0.22234532 1.166802 -0.3121743 0.13299526
000390 07 07 e7 3e 60 db 53 3f 28 cb 9a bf 83 16 b2 be
       0.4512255 0.82756615 -1.2093248 -0.347828
0003a0 46 65 cc be ed 43 45 3f 5e 22 74 bf 12 89 0c bf
       -0.39921016 0.7705677 -0.9536494 -0.5489665
0003b0 d9 02 53 3f 94 44 76 be 90 94 84 3e 47 5f 4f 3f
       0.8242622 -0.24049598 0.25894594 0.81004757
0003c0 f9 15 5e 3f c6 0d 45 bd ce f9 aa bf 3a ab 68 bf
       0.8675228 -0.04810884 -1.3357484 -0.9088627
0003d0 78 fe cf 3e 10 1f be bc b5 dd b4 3e 92 c6 14 3f
       0.40623832 -0.023208171 0.353254 0.58115494
0003e0 64 70 87 3e a9 38 52 3f 64 b9 3c 3e 4d af 1a be
       0.26452935 0.82117707 0.18430096 -0.15105934
0003f0 39 0a 9a bf a9 29 81 bf 1f 10 b2 3b db 74 02 bf
       -1.203437 -1.0090839 0.0054340507 -0.5095956

lstm.bias_ih_l1 f4 [128]
000000 64 a0 fe bc 67 36 97 3d 3b a0 40 3e ab c0 ea bb
       -0.03108234 0.07383423 0.18811123 -0.007164081
000010 7b e2 4e 3e f6 7f 6f 3c d4 a2 37 3e 48 2a 33 3e
       0.20203583 0.014617911 0.17933208 0.17496598
000020 c7 a0 13 3e 45 5d 34 3e 4b f6 ba 3e 5e 4e 42 bd
       0.144168 0.17613705 0.36516032 -0.047438018
000030 b1 f2 07 3f 90 66 3f 3e 2b f4 70 3e 9c 8e ef 3d
       0.5310469 0.18691468 0.23530643 0.116971225
000040 62 af eb 3e f5 5d e5 bc d0 9f 8f 3e 8e 4d 8a 3e
       0.46032244 -0.027998904 0.28051615 0.27012295
000050 38 e7 87 3e 60 e3 09 3f 76 0f cf 3e 7f 08 3c be
       0.26543593 0.5386257 0.40441483 -0.18362616
000060 db e0 98 3e c2 45 26 3e c4 5f 00 3f ab 17 ea 3d
       0.2985905 0.16237548 0.50146127 0.114302956
000070 cf 81 ea bb eb 80 83 3e 5c b4 f0 3e 0d 9d a6 bc
       -0.0071565877 0.25684294 0.47012603 -0.02033856
000080 59 0d 8e bd cb 5d 0e be 46 c3 27 be 2a 28 c9 3d
       -0.069361396 -0.13902967 -0.16383085 0.09822114
000090 a3 ad b1 bd e2 c7 b6 3d f8 69 b5 3d 0c 0d 7d be
       -0.08675697 0.08924843 0.088581026 -0.24712008
0000a0 1a 27 bd be ec 42 cf be 55 84 c9 be 40 cd ac 3c
       -0.36943895 -0.40480745 -0.39358774 0.021093965
0000b0 87 3b 6d bd 36 88 f8 bc 22 77 92 be 13 d8 f6 bd
       -0.057918098 -0.030338388 -0.28606516 -0.12052932
0000c0 db a1 25 bf 38 b9 c5 3d ae 54 0d bf 0a 5d a2 be
       -0.64700097 0.09654468 -0.55207336 -0.31711608
0000d0 0c e6 4e 3d 5f cb 79 be 1f 37 62 3e 91 fe 64 3e
       0.05051236 -0.24393986 0.2209134 0.22362734
0000e0 03 d0 32 be cb 19 95 bd af 57 83 be ce 65 66 be
       -0.17462163 -0.0728031 -0.25652835 -0.22499773
0000f0 56 36 0f 3d 4d 56 bc be eb 76 ba be 4a d6 4e bd
       0.03496393 -0.36784592 -0.36418852 -0.05049733
000100 31 89 c5 3d 17 a3 fa 3c ca 20 f9 3d 8c 1c 62 3b
       0.09645308 0.030595345 0.12164457 0.0034501879
000110 6c da 78 bd a2 88 fa 3d a2 64 31 be 8c 54 a0 3d
       -0.06075518 0.12233092 -0.17323545 0.07828626
000120 b7 ad 0f 3d 26 ed 44 be 0f e9 20 3d 41 af c0 be
       0.035077777 -0.1923109 0.039284762 -0.37633708
000130 1a 3b 33 3e 18 06 15 be bd 92 a1 bd 23 34 8e 3d
       0.17503014 -0.14553106 -0.07889316 0.06943538
000140 aa 8a 38 be f9 9e 7b be c3 81 a9 3d 16 55 5f 3d
       -0.18021646 -0.24572362 0.08276703 0.054524504
000150 a3 d0 8e ba e0 b4 19 3d 85 87 c6 bd 7e 6f 90 bd
       -0.0010895919 0.03752601 -0.09693817 -0.070525154
000160 9b d0 8b bc 33 e1 93 3e 98 b6 a4 bd cb 01 0c be
       -0.017067244 0.2888275 -0.080426395 -0.13672559
000170 50 b7 10 3e dc be f4 3d d3 c3 cf 3d e6 79 36 3e
       0.14132428 0.11950466 0.101447724 0.17819938
000180 cd 8b 8d 3e f0 12 c7 3e 0a 3a af bd f8 4f ea 3d
       0.27645722 0.38881636 -0.08555992 0.11441034
000190 e3 85 0c 3e ab 02 f1 3d 95 80 b7 3e 3a 9b df 3e
       0.13722949 0.11768087 0.35840288 0.43673116
0001a0 2f f5 02 3e 43 fe 86 3e 7d 96 8c 3e a3 12 23 38
       0.12788843 0.2636586 0.27458563 3.8879585e-05
0001b0 19 4e ef 3e e8 a6 4c 3e bc d2 69 3e 1e ee a1 3c
       0.4673927 0.19985545 0.22834295 0.019766863
0001c0 d1 3f 22 3f d9 c0 7c be 92 e5 c9 3e cb fd 13 3e
       0.63378626 -0.2468294 0.3943296 0.14452283
0001d0 9b ee 98 bc 29 24 0c 3f ac 2d c7 3e 95 28 b9 3d
       -0.018668463 0.54742676 0.38902032 0.090409435
0001e0 2e 73 a0 3e c5 f6 a9 3d 5b cc ac 3e 8c 39 18 3e
       0.31337875 0.08299021 0.3374966 0.14865702
0001f0 4d 6b 13 3d 6a 87 10 3f c6 85 19 3e 3f 5b 99 3d
       0.035991002 0.56456625 0.14992437 0.07488107

lstm.bias_hh_l1 f4 [128]
000000 f7 e2 bd 3d 43 21 a3 3e b9 70 78 3d b9 67 1b 3e
       0.09271806 0.31861314 0.060654376 0.15176286
000010 74 e8 df 3d f5 0e df bd 29 8d a6 3c b8 42 cb 3e
       0.10933009 -0.10891525 0.020330982 0.3969934
000020 c8 1a b9 3d d9 6b 88 3e a8 1b f8 3d 9c 22 f6 bb
       0.09038311 0.2664478 0.1211465 -0.00751145
000030 36 ae e8 3e 57 3c 36 3e 3e 5f 8e 3c 7a a8 81 3e
       0.45445412 0.17796455 0.0173794 0.2532385
000040 5f 91 ca 3e df db 54 3d 81 90 b4 3e a4 94 27 3e
       0.39564034 0.051967498 0.35266498 0.16365296
000050 8f 48 68 3e 2c 91 fa 3e e1 8b f4 3e 8b 34 ab bd
       0.22683929 0.48938882 0.4776297 -0.08359631
000060 b1 45 be bb f9 dd af 3e 8f b5 e1 3e 11 a2 4f be
       -0.0058066477 0.3434904 0.4408383 -0.20276667
000070 d5 9f 81 3d f2 6f f8 3e 8d 33 68 3e 33 df 03 3e
       0.06329314 0.48522907 0.22675915 0.12878112
000080 ed ee ac be e7 93 54 bd d8 9c d8 be 49 9d 29 3e
       -0.33776036 -0.051898863 -0.42307162 0.16563906
000090 2f 58 3e 3c 82 5c 73 be ab 36 27 3e b7 38 82 be
       0.011617704 -0.23765758 0.16329448 -0.25433895
0000a0 3b d5 bd be ab ce cc be d2 f3 aa be d1 b5 4b be
       -0.37076744 -0.40001425 -0.33389145 -0.19893576
0000b0 ae fc 14 be 9f f6 a2 bc 52 75 39 be 79 c6 38 bd
       -0.14549515 -0.019892989 -0.1811116 -0.045111153
0000c0 84 f7 48 bf 90 5e eb 3d 98 97 f5 be 3d d1 09 bf
       -0.7850268 0.11492646 -0.4796722 -0.538349
0000d0 27 1f 81 b9 1a 3b 9a be 4c 8e 4f 3e a5 b1 ed 3d
       -0.00024628008 -0.30123216 0.20269126 0.11606149
0000e0 08 16 57 be 99 18 a2 be bc a9 8e be 6c be 00 be
       -0.21004498 -0.31659392 -0.27863872 -0.1257264
0000f0 94 8c 18 be df 5d 92 be 8e 38 9e bd f5 cc 8f 3d
       -0.14897376 -0.28587243 -0.07725631 0.07021514
000100 30 63 08 3e ab 9c a6 3e 05 51 eb 3c 37 e6 d8 3c
       0.13319087 0.32541403 0.028725157 0.026476962
000110 2d c8 f8 3d 3a 75 43 be e5 b4 a9 3a 56 56 2b 3a
       0.121475555 -0.19087687 0.0012947588 0.00065359974
000120 cc 60 07 3e ef ad c8 bd 54 9e 46 be e3 25 46 be
       0.13220519 -0.097988 -0.19396335 -0.1935039
000130 2f 89 cf 3c 0a cd f1 bd 0d b5 81 3c 98 f8 30 3d
       0.025333969 -0.11806686 0.015833402 0.043205827
000140 a1 c7 1c be 55 00 38 be 0c a8 32 3e c8 94 1c 3e
       -0.15310527 -0.17968877 0.17446917 0.1529113
000150 5d 96 46 bd a4 d1 93 be ce d8 19 bd b7 c8 14 3e
       -0.04848324 -0.2887088 -0.037560277 0.14529692
000160 ed 5d b5 3d fe 3a 51 3e 0c cb 6a 3e b4 69 a3 3c
       0.088558055 0.2043266 0.22929019 0.019947864
000170 83 bb 17 be 1e d2 82 3e ca 39 bf 3d 7a 03 59 3e
       -0.14817624 0.25550932 0.09337194 0.21192732
000180 fe f3 46 3e 30 f2 b9 3e fa d0 8c 3d b2 c3 8d 3d
       0.19429013 0.36317587 0.068757966 0.069220915
000190 a5 19 1b 3e 69 73 68 3e 01 e8 96 3e 84 28 59 3e
       0.15146501 0.22700275 0.2947388 0.21206862
0001a0 e4 b4 0a 3d 75 5c ef 3d 5b f7 9c 3e eb cb 91 3c
       0.033863917 0.11687557 0.30657467 0.017797431
0001b0 f6 07 ab 3e a1 2b f8 3e 23 83 b2 3e ca 1c 16 3d
       0.3340451 0.48470786 0.34865674 0.03664855
0001c0 87 55 d9 3e e8 92 54 bd ce 15 c4 3e 6b f0 96 3e
       0.42448065 -0.051897913 0.38297886 0.294803
0001d0 5b 3b 9e 3c 81 53 cf 3e e6 ab ad 3d 10 45 3b 3e
       0.019315412 0.40493396 0.08480053 0.18288064
0001e0 e8 74 8d 3e 41 8d e6 3d 8b de 29 3f 2b fe 8b 3c
       0.27628255 0.11257411 0.663552 0.01708897
0001f0 29 64 a4 bd f1 b9 c8 3e a2 9d 46 3e c2 51 07 3d
       -0.080269165 0.39204362 0.1939607 0.033036955

net.0.weight f4 [16, 32]
000000 14 99 2d bd 51 fa 00 ba 50 a6 49 3c 0c 1c 83 3d
       -0.042382315 -0.00049201126 0.012307718 0.06401834
000010 6e 86 fa bd 5b 87 f9 bd 89 48 9d bd 7a e3 d3 3c
       -0.12232672 -0.1218402 -0.076798506 0.025865305
000020 c4 0f ce be 6f 8d a4 3d c6 90 9b 3d b4 a5 5c bd
       -0.40246403 0.08034789 0.07595973 -0.053868964
000030 74 56 ca bd 6c 92 fd 3d 09 99 21 3b 95 8f 00 bd
       -0.09879771 0.123814434 0.0024657866 -0.03138693
000040 64 22 6a be 63 31 78 3d eb db fb 3e 4d 37 aa 3e
       -0.22864681 0.060593974 0.49191222 0.33245316
000050 bd a9 fd bd 01 26 02 be ba 27 a7 3d 83 86 75 3d
       -0.12385891 -0.1270981 0.08161874 0.059942733
000060 6f 40 5a 3d dd 3a 50 be 14 a6 02 3d e3 02 68 be
       0.053284105 -0.20334955 0.031896666 -0.22657351
000070 42 ea 0e 3d cd d2 15 3e a7 ee 08 be 0d 66 bb 3d
       0.034891374 0.14631195 -0.13372289 0.09150324
000080 9a 4f 06 bd 8d 57 f9 bd 1d 5f 11 bd a6 26 dd be
       -0.032790758 -0.12174902 -0.035491098 -0.4319355
000090 e8 0c f2 3e 86 eb a3 3e 91 57 12 3d ed 02 db bc
       0.47275472 0.32015628 0.03572804 -0.026734794
0000a0 6b d7 c6 be dc ba c6 bc 3c 37 0e 3e 6f f8 c2 3d
       -0.38836226 -0.024259023 0.13888258 0.09520041
0000b0 70 e0 8e bd ee 75 b7 3c 79 83 19 be a3 6d c5 3d
       -0.06976402 0.0223951 -0.14991559 0.09640052
0000c0 75 75 74 3c 4d db 5d bd 7b 31 05 3c e1 72 9e 3d
       0.014920582 -0.05416422 0.008129473 0.07736755
0000d0 99 9d 5c bd 94 0b 21 3e da ee b2 be fc 30 ec be
       -0.053861234 0.15727073 -0.34947854 -0.46131122
0000e0 e5 c0 cd 3d bd f9 4d bd e6 03 ab bd c5 b8 1c 3f
       0.10046557 -0.050286997 -0.08350353 0.61219436
0000f0 69 46 23 be 78 25 f3 bc b0 90 85 3d b2 42 75 be
       -0.15944828 -0.029680952 0.065217376 -0.23951223
000100 13 8b 8c bd 4e 6a e2 3b 6c 41 32 bd c3 69 1a bf
       -0.06862464 0.006909645 -0.043519422 -0.6031763
000110 b1 9b b2 3e 10 de d3 3e df 6d 03 3c ad fd a9 3c
       0.34884408 0.41380358 0.008021801 0.020750845
000120 00 88 67 be cc 5d ab bd 64 39 8e 3d 61 57 16 3d
       -0.22610474 -0.083675 0.0694454 0.036704425
000130 3f 0e 64 bd 3c 95 bc bc 1e b3 51 be 46 9c 3b 3e
       -0.05567765 -0.02302038 -0.20478484 0.18321332
000140 02 12 a0 3d eb 4e ed bc 72 6b 14 be 7b 4e 10 be
       0.07815935 -0.028968295 -0.14494112 -0.14092438
000150 ee b3 df bd fa fe f9 3d 64 c3 02 be 91 a9 1e be
       -0.10922991 0.12206836 -0.12769848 -0.15494372
000160 4a f3 4f 3d 5e 50 e3 3d 48 0b 86 bd 50 66 79 3f
       0.050769128 0.11099313 -0.065451205 0.9742174
000170 7e a3 0f be 2c 22 a0 bc 91 e1 79 3d 5d a0 43 be
       -0.14027211 -0.019547544 0.061006133 -0.19104142
000180 f9 4b 0f 3e 85 c9 b1 bc 01 39 2f bd 79 0e ef 3d
       0.13993825 -0.021702537 -0.042778973 0.11672682
000190 43 18 84 bd 04 40 81 be d2 a4 32 bd 61 4e 27 3d
       -0.0644994 -0.25244153 -0.043614216 0.040846232
0001a0 35 94 07 be 8f 30 f8 3d da 8a a9 3d c0 67 02 be
       -0.1324013 0.12118637 0.08278437 -0.1273489
0001b0 8e cd e7 bd 98 74 08 3d 2b 42 c1 ba a2 d9 37 be
       -0.11318503 0.033314317 -0.0014744451 -0.17954114
0001c0 11 51 9f be 50 c9 a2 3c c3 7a 26 3e e3 fc 95 3e
       -0.31116536 0.019871384 0.16257767 0.292945
0001d0 43 7b 74 bd a1 f9 b3 bd 66 d8 b3 3d 3c bb a7 3c
       -0.059687864 -0.08787847 0.08781509 0.020475022
0001e0 77 aa 34 bc a5 b0 30 be c0 1f 0c 3d 66 a9 27 be
       -0.01102697 -0.17254885 0.034209967 -0.16373214
0001f0 4b 97 93 3a 0e 99 bb 3d 0f cf 26 be 13 cf 51 3d
       0.0011260299 0.09160052 -0.16289924 0.051222872
000200 b5 97 04 3f 32 88 87 3d ce af 1b 3e da 11 54 3e
       0.51793987 0.06617774 0.15203783 0.20709935
000210 c8 92 a7 bd e7 fa b7 bb fc ad f7 bc 90 70 09 3d
       -0.08182293 -0.0056146267 -0.03023433 0.033554614
000220 99 1e ce 3c 29 d7 9b bc 5e 79 11 bd eb c8 1b 3e
       0.025161074 -0.019023495 -0.035516135 0.15213363
000230 ca 2a 0c 3d d7 8e 34 3d 6c ce 89 3e 99 64 0d bf
       0.034220494 0.044081535 0.269153 -0.55231625
000240 68 72 42 bd 24 67 a8 3e 11 cc 4b 3c 81 c9 f1 3c
       -0.047472388 0.3289119 0.01243879 0.02951503
000250 5b 19 39 3d f8 ce 03 bd 22 c7 07 be 75 a3 4b 3d
       0.045190196 -0.032179803 -0.13259557 0.04971643
000260 b1 95 70 be 29 84 90 3c 8e a4 1f bc fe 43 84 be
       -0.23494603 0.017641144 -0.009743823 -0.25833124
000270 3c ee 3f 3d 5f 6f 20 3c ed f6 7b bc 30 50 ef 3c
       0.046858057 0.009792178 -0.015378696 0.029213041
000280 3e 45 a6 3e 42 7b e2 3c 12 61 7d 3d 3c ef 25 3e
       0.32474703 0.027646665 0.06186015 0.16204542
000290 7c 6a da bd 96 9e 19 3e 58 55 80 3d 2d 3c a7 bd
       -0.106648415 0.15001902 0.06266278 -0.081657745
0002a0 51 5c 83 3e ff 93 59 be 7b fa 4a bd 7e 48 e8 3d
       0.2565637 -0.21247862 -0.049555283 0.11341952
0002b0 a8 91 2e 3e a6 86 92 3d 95 ce 9c 3e 21 a3 c2 be
       0.17047751 0.071545884 0.3062636 -0.38015082
0002c0 3b 84 f6 bb bb 93 f4 3e 11 94 16 be b0 54 bd 3c
       -0.0075230873 0.4776896 -0.1470492 0.023111671
0002d0 8d b7 a7 3d c6 22 13 bd 9c e2 25 bd 07 58 c5 3c
       0.081893064 -0.035921834 -0.040499315 0.024089826
0002e0 d1 98 c6 be 8e 4f c3 3e 05 4b 24 bc 4e 8d 38 3e
       -0.38788465 0.38146633 -0.010027652 0.18022653
0002f0 35 a8 7c 3c 35 f8 03 be a1 44 e0 3d b7 b9 df bc
       0.015420963 -0.12887652 0.1095059 -0.027310235
000300 70 a1 80 bd 64 8b ad 3b 76 aa 14 3c 22 8e 0d bf
       -0.06280792 0.0052961577 0.009073844 -0.55295
000310 6d 06 e5 3e 6f 61 ff 3e 41 cf 83 bd e5 9f 6f 3c
       0.44731465 0.49879023 -0.06436015 0.014625524
000320 b9 c7 18 be a8 75 79 bd b8 f1 2b 3d 70 17 5d 3d
       -0.14919938 -0.06090322 0.041978568 0.05397743
000330 5e 0e 65 bd b0 d0 21 bc 7a e5 8e bd 32 34 0b 3e
       -0.055921905 -0.009876415 -0.06977363 0.1359413
000340 43 81 09 3c a2 d3 18 bc 1e fa 30 bc da 33 ba bc
       0.008392635 -0.009327801 -0.01080182 -0.022729803
000350 06 0b 97 bd b3 74 14 3e f4 22 97 be a5 a6 98 be
       -0.073751494 0.14497642 -0.29518855 -0.2981464
000360 0a 5b b5 3d f2 8b fa 3b 5a ba a2 bc 0b 43 91 3f
       0.08855255 0.0076460773 -0.01986425 1.1348585
000370 f7 3e 86 be 12 62 7f bc df d2 88 ba bd 22 6a be
       -0.26219913 -0.015587347 -0.0010438821 -0.22864814
000380 0d b9 73 bd b2 8f 49 3d e1 e7 30 bd 2b 55 62 be
       -0.05950265 0.049209304 -0.043189887 -0.22102802
000390 e2 42 29 3d 12 31 97 3e 8e 2f de 3d 47 29 ce bc
       0.04132355 0.29529625 0.10848914 -0.025166167
0003a0 70 a0 30 3e d7 7f 8d be 56 69 c4 bb 87 f4 9b 3d
       0.17248702 -0.27636597 -0.0059940023 0.07614999
0003b0 ea 52 df 3c fd fe 4e 3d 9f c6 08 3e 78 4e 78 3c
       0.027261216 0.050536145 0.13357018 0.015155427
0003c0 1d 99 6e 3e 4b 1c 5e 3d 48 d3 4e be 89 63 9d be
       0.23300596 0.0542262 -0.20197785 -0.30740002
0003d0 83 12 c2 bd 83 95 b3 3d fd ae a7 3c 4e db 88 3d
       -0.09476187 0.087687515 0.020469183 0.06682454
0003e0 97 63 a4 bd b8 6a 85 3e 0a 04 2e bd 18 44 8a 3e
       -0.08026808 0.26057982 -0.04248432 0.27005076
0003f0 ef f1 85 3c 5a ba e3 bd 0e a5 06 3e 31 cb 02 3c
       0.016350714 -0.11119528 0.13148901 0.007983015

net.0.bias f4 [16]
000000 98 68 7c 3e f2 3a 89 3e 75 2b 53 3e c3 c4 8b 3e
       0.24649274 0.26802784 0.20622046 0.27298555
000010 db 04 5a 3e 33 8b f9 3d be ba 55 3e e1 8b 7a 3e
       0.21290915 0.12184753 0.20872018 0.24467422
000020 7b e9 85 3e 27 34 29 3e b4 3b 52 3e 22 13 37 3e
       0.26154694 0.16523801 0.20530587 0.17878392
000030 fc 71 62 3e 33 9c 5c 3e fa 91 18 3e ca 1d 59 3e
       0.22113794 0.2154396 0.14899436 0.2120277

net.3.weight f4 [3, 16]
000000 f0 31 b3 3a dc 91 db 3d 31 ae ca 3d e9 c5 3b bc
       0.0013671499 0.1072118 0.098965056 -0.01146076
000010 9e 6d dc bd 18 0a 69 bd db ea 07 3e 9d d0 7d 3c
       -0.10763095 -0.05689439 0.13273184 0.015491632
000020 aa 8e 79 3c 61 3e 80 3d 3c e3 63 3b 35 4f a0 ba
       0.015231768 0.06261898 0.0034772893 -0.0012230637
000030 03 b0 dc bd eb 1f c7 3d bc d9 f9 bd 85 e2 95 bd
       -0.10775759 0.09722885 -0.12199733 -0.07318596
000040 fe 09 e5 ba 30 6b cf 3d 46 42 c7 3d 12 e1 8f bc
       -0.0017474291 0.10127866 0.097294375 -0.017563377
000050 3c 5b e0 bd 90 95 62 bd 5b d2 01 3e 81 8b 1f 3c
       -0.109549016 -0.055318415 0.126779 0.00973785
000060 b1 76 0c 3c d2 31 66 3d 47 3a 24 bb 15 53 45 bb
       0.00857322 0.056199856 -0.002505915 -0.0030109335
000070 eb 4b e9 bd 94 27 be 3d be 41 06 be 5c a3 98 bd
       -0.11391433 0.09284893 -0.13111016 -0.07453033
000080 c2 1b d6 3d 65 4f 41 3a c9 8f 8a bd 2d fc 00 3e
       0.10454513 0.00073741964 -0.06765706 0.12596197
000090 38 c8 85 3c a2 3a ff bd 23 09 c8 bc 01 6b f3 bd
       0.016330823 -0.12462355 -0.02441842 -0.11885644
0000a0 47 f7 e2 bd 18 8f ea 3d b9 d3 00 3e fb 1a fa bd
       -0.11082321 0.11453074 0.12580766 -0.12212177
0000b0 f5 03 96 3d b8 fd 2a 3d 79 83 01 bd e5 65 f4 3d
       0.073249735 0.04174587 -0.031619523 0.11933497

net.3.bias f4 [3]
000000 5a 06 2e 3f d9 f3 26 3f da de fe 3e
       0.6797844 0.6521583 0.49779397
